Full_GCN.pt (torch, 797383 bytes, 10 tensors)

layers.0.weight f4 [2, 256]
00000000: d6a4 4e3e 1559 14bd f7b5 183e 79d2 b23d
00000010: ef50 873d 82a5 223e 22a3 103e c3c3 463d
00000020: 3b71 33bd d305 b93d 563f 4e3e 9c36 7b3c
00000030: 0dcc 10be 6295 e43d 7b99 253e 2c0b 423d
00000040: a53e 473d 942a 013e 16bd 97bd d184 803d
00000050: 91a7 28bd eab5 cf3c 6aa5 11bd 25ab 1ebe
00000060: 2e30 503d 919d 063e 8071 cebc b1f0 c73d
00000070: c098 03be 490c f5bb 8f61 1f3e 02a6 383d
00000080: 1be7 c63c 8bcd dc3d 19a1 1f3e 5c87 fa3d
00000090: 80b7 56bd 3868 c63d 7f5d 2b3e 4a31 6f3d
000000a0: 1942 09bd e09a 4e3e e975 c43d 9c8b cfbd
000000b0: ee00 22bd b1b6 08be a50c b0bd 22fc 17bd
000000c0: 8eac 3f3e a315 bbbc f465 6ebd c7b8 18bd
000000d0: 6688 093e 8826 b43c 4ca6 193e ed7e e93d
000000e0: 238e 80bc a50c 90bb 7863 7ebd 5dde 06be
000000f0: 29e0 afbd 0ae7 8cba 37d9 573d 6ad1 313e
00000100: 925a 78bd e897 90ba 6076 523e fd12 c73d
00000110: de47 fdbd 0779 173e a346 3c3c 550a 9dbb
00000120: fe41 e63c 5f1d 04be 8774 383d b480 93b9
00000130: 0664 2ebb cfba ac3d 3560 e2bd 4be4 ed3d
00000140: 1f4f 973d fa02 e6bd cb14 2bbc bf95 553d
00000150: 9c57 883d 3e8a 37bd 5a5b 8b3d 3816 793e
00000160: a3d5 723e a8df 4cbc def2 21bd 538c e93d
00000170: 9df9 303e 0756 0a3d b5b1 7dbd 7a97 93bc
00000180: a4e5 3abe 7892 c53d 688e 723e d015 f53c
00000190: b1b6 c0bd b2bc 16be dc21 dcbd 4a4b 26be
000001a0: 1ab6 703d 2bd6 843d a54f a1bd 147d 2a3e
000001b0: 9a11 be3d 52f4 64bb bf43 bc3c 9715 d3bc
000001c0: f32e 90bc f597 9bbd 86a9 423c e483 a1bd
000001d0: 7434 453e b3f3 5e3e cd32 52bc 9051 27be
000001e0: 24ce 223e 6acc d43d 37db 463e 7ec7 e6bb
000001f0: 8250 9d3d 6a92 2c3e 8880 efbd 2952 1c3e
00000200: 9697 87bc e157 033d 4aa3 963a a2e9 27be
00000210: be7e b63d 0089 b1bd 3ae8 14bc 45f4 683e
00000220: 9de0 d0bd 4d60 d63d d990 e53d 02d8 a2bd
00000230: c694 ed3d 3c00 f33d 78d6 493d f1a5 a2bd
00000240: 5f17 013d 34c7 af3d 384d 973c 080d cdbc
00000250: bf0c 183e c22b 0abe 0970 b03d 0b62 283c
00000260: 51ee e33d 89ec 4bbd d89f 1d3d c2b1 5bbd
00000270: 0226 55bd 66f5 06be 15ce 1a3c 6e3a d33d
00000280: 8b26 06be fb31 8e3c 86b5 08be 65a8 273e
00000290: fc82 95bd aef9 173d 3a0f a53d fd79 a3bd
000002a0: a5bc c6bb 2aff ff3b 746a 253e 7c1a d8bd
000002b0: d8e4 d0bd c1fb 283c 85a6 1c3e e290 683c
000002c0: b9fc a03c a1d4 0fbe 6122 8d3d 64a4 80bd
000002d0: 8227 8abc 6240 9b3d 6646 90bd 7aa7 4c3e
000002e0: 9ee7 efbd ba32 22bd c3fb da3d e4b4 3b3e
000002f0: fe6d e03b bac5 aa3d 66a3 57bd deb2 39be
00000300: 1dc9 f33d 71d5 223e 5cdf 0b3e 5f53 153e
00000310: f63f 763e 7352 c83b 6868 353c 4ceb 83bc
00000320: 08c2 0c3e 5508 70bc c3d2 b4bd ad42 cebb
00000330: 9078 dd3c cc00 543e 0708 46bd a326 3d3d
00000340: 08fc 223e a67d 9b3d e398 703d 54bf 4a3e
00000350: 3c1b 2ebd ad22 603d 9e2d 783d 66df b23b
00000360: d3ab 453e 14c8 c1bd 3310 163d aee7 273e
00000370: bfef df3d be57 343d efdc 5dbb d3d5 833d
00000380: e8f0 1a3e 213e 933c 8655 a43c 6e59 373d
00000390: 0197 a83d 88cc 033e 8ffb af3c 2b76 eb3d
000003a0: d904 333e 967d aa3c c4e7 453c 1914 04be
000003b0: 8f27 9fbc e730 393d 4cec c6bd e483 44bc
000003c0: a617 2c3e d7df 433e d307 9a3d ad58 523e
000003d0: da4a 963d eed2 9c3d 40cc 43bd 9ffc 9abb
000003e0: 7855 f6bc 20d1 1dbc 65de c3bb dccd c1bd
000003f0: 9dd0 39bc 70fd 1e3d 2db3 4fbc 7152 74bd
0.20180067 -0.036217768 0.14913164 0.08731551 0.06607234 0.15883449 0.1412473 0.048526537
-0.043809157 0.09034314 0.20141348 0.015332844 -0.14140339 0.11161305 0.1617183 0.047373936
0.048643727 0.12613899 -0.07409112 0.06275333 -0.04117543 0.025355298 -0.03555814 -0.15494974
0.050827198 0.13146044 -0.025200605 0.09762705 -0.12851238 -0.007478271 0.1556456 0.045080192
0.024280122 0.10781392 0.15588798 0.12232849 -0.052421093 0.09687847 0.16734885 0.058396615
-0.0335103 0.20176268 0.09592802 -0.1013405 -0.039551668 -0.13350941 -0.08596162 -0.037105687
0.18718168 -0.022837466 -0.0582027 -0.037285592 0.13430938 0.02199103 0.15004843 0.11401162
-0.015692776 -0.0043960386 -0.06210658 -0.13170762 -0.08587677 -0.0010750007 0.052697387 0.17365041
-0.06063325 -0.00110316 0.20552969 0.097204186 -0.12367223 0.14792262 0.0114914505 -0.0047924914
0.02810764 -0.12901829 0.045033004 -0.00028133916 -0.0026609912 0.084340684 -0.11053506 0.11615809
0.07388138 -0.112310365 -0.010441969 0.052144762 0.06657335 -0.044809572 0.06804533 0.24324882
0.23714308 -0.012504496 -0.039538257 0.11403718 0.1728272 0.03377345 -0.061937053 -0.018016566
-0.18251663 0.09647077 0.23687136 0.029917628 -0.094098456 -0.14720419 -0.10748646 -0.16239658
0.058767416 0.06486162 -0.07876519 0.16649276 0.09280701 -0.0034935665 0.022981523 -0.02576713
-0.017600512 -0.07597343 0.011881238 -0.07886484 0.1925829 0.21772651 -0.012829495 -0.16339707
0.15898949 0.103905514 0.19419561 -0.0070428243 0.07681371 0.16852728 -0.11694437 0.15265717
-0.016551774 0.03206623 0.0011492756 -0.16397718 0.08910893 -0.08668709 -0.00908857 0.22749431
-0.101990916 0.10467587 0.11209268 -0.079513565 0.11600642 0.11865279 0.0492768 -0.07941807
0.03151643 0.08582917 0.018469438 -0.025030628 0.14848612 -0.13493255 0.08615119 0.0102772815
0.111294396 -0.049786124 0.038482517 -0.05363632 -0.0520382 -0.1317955 0.009448548 0.10313879
-0.1310064 0.017357817 -0.13350496 0.16372831 -0.07300374 0.037103347 0.08059545 -0.07982252
-0.0060649686 0.0078124003 0.1615389 -0.105519265 -0.101998985 0.010313929 0.15297897 0.014194699
0.019651758 -0.14045955 0.06891323 -0.06281355 -0.016864542 0.075806394 -0.070446774 0.19985762
-0.11714099 -0.039599158 0.10692551 0.18330723 0.0068490496 0.083384946 -0.052646063 -0.18134639
0.11903594 0.15901734 0.13659424 0.14582585 0.24047837 0.0061133443 0.011072256 -0.01610341
0.13745892 -0.014650424 -0.08829262 -0.0062945695 0.027035028 0.20703429 -0.0483475 0.046179425
0.15916455 0.07592325 0.058739554 0.19799548 -0.04250644 0.05472057 0.06059038 0.00545876
0.19303827 -0.0946199 0.036636543 0.16396973 0.109344 0.04402899 -0.003385361 0.06437268
0.15130961 0.017973961 0.020060312 0.04476302 0.08231927 0.12870991 0.021482257 0.11497148
0.17482318 0.020811837 0.012079183 -0.12898292 -0.019428043 0.045212653 -0.09713039 -0.011994336
0.16805896 0.19128357 0.075210236 0.2054164 0.073384956 0.07657419 -0.04780221 -0.004729822
-0.030070052 -0.009632379 -0.005977439 -0.09463093 -0.011341241 0.038815916 -0.012676996 -0.059648935

layers.0.bias f4 [256]
00000000: 3968 0ebe 9baf 4abe 2b16 02bd 78d4 4dbe
00000010: cd5f 69be 4947 56be d289 babd fe02 1ebe
00000020: 8697 27be 0284 783d e43f 0fbe f9a4 1cbd
00000030: 15fd 88bd f548 74be e3b9 a7bd 6a80 15be
00000040: a822 06be caf2 9ebd 3150 f3bd c895 16be
00000050: 3fb0 57be 9b31 a6be 8c81 09be d795 06bd
00000060: ab3a 25be 1e6b 97bd ab2b 01be 47b0 c4bd
00000070: 209a 15be cfba 96bd 518f abbd 8de5 d6bd
00000080: 75d6 60bd f2c0 72be c83c 7dbd 3d43 28be
00000090: 4820 4d3b 39d1 6bbe 864a adbd f7e5 a8bc
000000a0: 1864 2ebe 8678 b4bd c18d 34be 15ea a2bd
000000b0: 4b86 15be 92d9 d0bd 99f9 12be 57cc 02be
000000c0: f709 04be 8efe 20be ab1c cebd 1f71 cebd
000000d0: 99f8 abbd d59d 9cbd 94b0 dd3d 11a4 6dba
000000e0: ec81 03be fb72 a6bd 9be6 c0bd 2233 7c3c
000000f0: bb68 f1bd 96d8 15be c94c 12be 54f7 883d
00000100: 460f 12be 0877 7cbc 0a2a 8d3b 72c0 8cbd
00000110: 0388 a2bc ec04 61bd cad3 e6bc 6b50 92bd
00000120: 8fb6 bfbd 3ece 08bd 500e eabd cb2f 84bd
00000130: be85 a1bc 041e 113d 7846 2bbe a138 85be
00000140: 931b 2fbe c303 1cbe ed30 f5bd 4824 f3bd
00000150: 07ef 15be 2d69 44be c792 4dbd 8869 893a
00000160: c952 1c3a 2ed5 b5bd d22a 47be b62e eebd
00000170: 7579 c33d 6b97 fdbd 8135 2fbe b7fc 0abe
00000180: dbc6 dfbd 5958 73be 71f9 ab3d 7b3d 91bd
00000190: aa63 e0bd 199f fabd 9c7c 15be cde7 e1bd
000001a0: 5eb1 30bd 910d 26be ac62 19be 7d88 333d
000001b0: b407 7fbd 805b 65bd b068 5ebd cef6 1abe
000001c0: 747c 12be aef3 1bbe 7e66 b0bd 223b 13be
000001d0: 22a9 163d 0660 11bd e328 4abd 3930 f8bc
000001e0: 3573 a4bc 12d0 06be 24f9 0c3d 14d4 10be
000001f0: 7ccd 02bd 3f92 dbbd bcf0 a5be c149 89bd
00000200: 4a57 08be b099 93bd 1657 afbd 516b bf3c
00000210: 9602 74be 6ad4 89be 3f79 a0bd 4a06 683d
00000220: 60be dbbc 13a3 18be f279 7abe 7ce9 cbbd
00000230: 582c 95bd 5a0b a03d f66c 2abd 225e aebd
00000240: b1f9 8abd 3872 12be 117c 47bd e90d 02be
00000250: 6ca1 93bd 7934 20be bb50 143c 46fc 9abd
00000260: d399 0bbe cc0a 49be 2a86 c9bd 3a2b 20be
00000270: 1cc5 30be de7f 4dbd 74a3 d7bd 44b4 a4bd
00000280: 1fba 313d ef60 22bd 4020 643d b824 6a3d
00000290: 4b61 debd c94c f4bd ba59 51be ba10 fabd
000002a0: f03d 0abe 3d18 6ebd 54c5 0fbd 7781 5cbd
000002b0: ff50 503a 71d2 89bd 7e7e 80bd 2423 05bd
000002c0: 0506 a7bd c5a9 0dbe f38b 2bbe 1161 ecbd
000002d0: 0d24 08be ea93 3bbe 56bc 2bbe ca35 99bc
000002e0: 2d66 17be c263 25be a0bc 88bd 45e3 d7bd
000002f0: f26b 1fbe 35f8 603c 69f4 5ebe 3be2 c6bd
00000300: be7d 8ebd faf9 a1bd 6318 51bd aeee 9ebd
00000310: 9bad cc3c e4cd bcbc 1cde e6bc fd30 a3bd
00000320: 4af6 c5bd 04d4 d6bd 3793 afbd 8113 ddbd
00000330: 0b30 81bd b9c7 0fbd 7923 0dbe b30b 08be
00000340: 163e e2bc 622c 32be c0cc 34bd eb72 a6bc
00000350: 0b8f 54be 7908 07be 0939 06be 5dab d6bd
00000360: 2ce0 01be 6462 93bd 5ed4 eebc 4eb9 98bd
00000370: 26bc e4bc 99d6 e7bd 380a a4bd 07b1 17be
00000380: 6b35 9fbd e042 34be 8bd5 f8bd 6ad7 0bbe
00000390: b76f 75bd d529 8fbd c9ac 08be 3fc6 81be
000003a0: 74e0 ecbd a517 f3bd 5afe f1bd 3f02 17be
000003b0: 33c6 22be f092 21be 5d5d a1be fe04 01be
000003c0: 7f3c a5bd 22fb 853c 8b86 32be bbd9 0cbd
000003d0: 1c29 49bd 4c3a 9dbd c84c 4dbe 1b83 03be
000003e0: ebbc 0abe dd22 e9bd ee88 a8bd 7038 0dbe
000003f0: 9a06 d0bd 8589 ddbd 0153 04be 2a47 1ebe
-0.13906945 -0.1979355 -0.031759422 -0.20100582 -0.22790451 -0.2092563 -0.091083184 -0.15430829
-0.16366395 0.060672767 -0.13989216 -0.038243268 -0.066888966 -0.23855956 -0.08189752 -0.14599767
-0.13099158 -0.07761152 -0.1188053 -0.14705575 -0.21063326 -0.3245972 -0.13428324 -0.032857742
-0.16135661 -0.07393478 -0.12614314 -0.09603935 -0.14609575 -0.0735985 -0.08376945 -0.10493002
-0.054892022 -0.23706415 -0.061825544 -0.164319 0.0031299759 -0.23029031 -0.0846148 -0.020617468
-0.1703037 -0.088120505 -0.176322 -0.07954804 -0.1460201 -0.10197748 -0.14353026 -0.12773262
-0.12894426 -0.15722105 -0.10064062 -0.1008017 -0.083970256 -0.076472916 0.10824695 -0.00090652803
-0.1284253 -0.081273995 -0.094189845 0.01539305 -0.11787554 -0.14633402 -0.14287104 0.06687799
-0.14263639 -0.015409239 0.00430799 -0.068726435 -0.019840246 -0.054936334 -0.02817716 -0.07144245
-0.09360992 -0.033399813 -0.11428511 -0.06454428 -0.019717094 0.035429016 -0.167261 -0.26019767
-0.17100362 -0.1523581 -0.119722225 -0.118721545 -0.14641963 -0.19180746 -0.050188806 0.0010483721
0.00059632637 -0.088785514 -0.19449928 -0.11630003 0.095446505 -0.12382396 -0.17110254 -0.13572966
-0.109266005 -0.2376417 0.083971865 -0.070918046 -0.109565094 -0.12237377 -0.14598316 -0.110305406
-0.0431379 -0.16216113 -0.14979047 0.043831337 -0.062263206 -0.055995464 -0.054299057 -0.15133211
-0.14305288 -0.15229675 -0.08613299 -0.14378026 0.03678239 -0.035491966 -0.0493554 -0.030296432
-0.020074466 -0.1316531 0.034417287 -0.14143401 -0.031934246 -0.107212536 -0.32410228 -0.067035206
-0.13314548 -0.07207048 -0.08561532 0.023366602 -0.23829111 -0.26919872 -0.07835626 0.056646623
-0.026824176 -0.14905958 -0.24460581 -0.09956643 -0.072838485 0.07814665 -0.04160782 -0.08514048
-0.06785906 -0.14301383 -0.048702303 -0.12700619 -0.07208523 -0.15645017 0.009052451 -0.075676486
-0.13632898 -0.19633025 -0.09840043 -0.1564149 -0.17262691 -0.05017077 -0.10529223 -0.080421954
0.04339039 -0.039643224 0.05569482 0.057163924 -0.10858401 -0.11928708 -0.20444384 -0.122102216
-0.1350019 -0.058128584 -0.035100296 -0.053834405 0.00079466397 -0.06729592 -0.062741265 -0.032504216
-0.08155445 -0.13834293 -0.16752605 -0.115419514 -0.13295002 -0.18318143 -0.16771063 -0.018702406
-0.1478507 -0.16151336 -0.06676602 -0.10541395 -0.15568522 0.013731052 -0.21772923 -0.09711119
-0.06957577 -0.07909007 -0.051048648 -0.07760368 0.024985125 -0.023047395 -0.028182082 -0.07968328
-0.096661165 -0.104896575 -0.08573001 -0.10794736 -0.063079916 -0.03510258 -0.13783063 -0.13285713
-0.027617496 -0.17399743 -0.044140577 -0.020318469 -0.20757692 -0.13186826 -0.13107695 -0.10481904
-0.12683171 -0.07196501 -0.029153999 -0.07457219 -0.027921747 -0.11320228 -0.080097616 -0.14813624
-0.077738605 -0.17603636 -0.12150105 -0.13656393 -0.059920993 -0.06990401 -0.13347162 -0.25346562
-0.115662485 -0.11869744 -0.11816092 -0.1474695 -0.1589592 -0.15778708 -0.31516543 -0.1259956
-0.08068179 0.016355101 -0.17434137 -0.03438733 -0.04911147 -0.07677135 -0.20048821 -0.12842982
-0.13548629 -0.11383603 -0.08229242 -0.1379106 -0.10157509 -0.108172454 -0.12922288 -0.15456834

layers.1.weight f4 [256, 256]
00000000: 6c8a 2dbd 63db 19be 06a7 363d 1603 a23d
00000010: 5fde 423d d364 a5bd e467 18be 76da 02bc
00000020: 8f9c 0abc 1a37 213e 9fd1 393e 0be7 053d
00000030: af14 473d aa46 a7bd c7cf 0cbf f62b e13c
00000040: cd3a 40bd 83e9 a33d 2cb1 c4bd 2a85 853c
00000050: 8680 123e 19e7 ba3b be53 20bc b258 3c3d
00000060: a11b 783d 5098 363d 5c84 e1bd a2b7 813d
00000070: 3fa7 483c c1c3 e2bf 1818 ca3e 143b 903d
00000080: 7a47 59bc d7c9 b6bc e773 93bd cc78 1f3d
00000090: a93e cfbd 5672 c2bc ba73 00be 7e65 53bd
000000a0: 622a c03c e6c8 5c3d 2930 efbc 2be9 0d3d
000000b0: 674b a43e b572 dfbb 134b 93bc 1e0f b7bd
000000c0: 120b 933d 1e67 823d 997b 1c3e 3651 99bc
000000d0: db43 70bd 5a07 f13c 547a a5bc 7bc3 b0bd
000000e0: 9713 c43c a845 3dbd 0134 81bd bfc1 07bd
000000f0: 7f2b 823e b2f2 a73c 364c d63d a8be 8dbc
00000100: e747 60bd 140f 36bb 2d0d 943d baaf 3c3d
00000110: ce54 adbd a3ba 0c3d 4e73 b43b 0638 1dbe
00000120: ba38 103d af46 8dbe e850 4cbd 4651 b03c
00000130: c2e9 65bd f29b 17bd ec88 9bbd e5cb c23c
00000140: e509 1d3e ccf6 1cbd 9ca2 903e fa32 693d
00000150: c50c 7dbb bbc9 423e 3503 093d cead 25b9
00000160: ed87 ddbd 7467 b43d f5de 59bb 4b54 123d
00000170: 8e8d 623e 7889 7cbe 8d7c 0f3d 2733 8ebd
00000180: 952b 883c d07b 79be adf8 1ebd 8fcb 073d
00000190: 98a2 423d d382 2fbe f88b 7a3e ce75 433d
000001a0: 92dd b3ba 1cdb 5d3a f840 b7bc 22d0 a2bd
000001b0: e67b 803c 522e 03bd 6893 003d f8f2 673d
000001c0: b627 95bd 1a75 dfbd 72fa 153c fdf1 5dbd
000001d0: 3451 1bbb b374 2b3d 8c7f f83b de80 1f3d
000001e0: c0b0 5cbd b0cc 593e 8323 953c 169e 17be
000001f0: 86cf 9bba ff7e 8abd 0e6c 33be f3fa ecbc
00000200: 8115 18bd 7f7f b8bd d19e f9bb 47d0 88bd
00000210: 9666 90bd f81a 5e3d 1af5 9ebe fb4b 1ebd
00000220: ec33 45bd 8880 773d 28dd d5bd 87af a03c
00000230: 0804 b43c f0fd eb3c 66d4 11bd 5c88 4c3d
00000240: b5f4 4cbf 0f7a b9bb 97ce 1dbd 006f cb3c
00000250: e33d 0b3e 1561 43bd 42c9 14be fc8c bfbd
00000260: 0944 0d3e 52ab 2a3b ad07 2abe f3fe 15bc
00000270: 8fb9 94bd 93c0 34bd 2757 62bd 79b0 573d
00000280: e0a6 85bd 346b 633e 90cd 293c a272 37bd
00000290: f1ea 5a3d 5683 963d b047 38bd a1ad 2a3e
000002a0: b782 e33d 785d 1abe 9505 613d 5ca2 c6bd
000002b0: f0fd 96bd 00e4 883e 48e7 0bbd 2741 e7bc
000002c0: 0546 f0bc 58a3 353b b6b5 e6bc 2a43 bebd
000002d0: 7229 c2bc 8e86 dd3c ffeb f63c 4900 28be
000002e0: 85b8 65bd b29c 813b 473d 87bc adeb 833b
000002f0: b73b a7bc c52e 4dbd d2cf 8abd b84b a43d
00000300: de94 82bc af73 ac3d 04f5 6c3e 0527 693b
00000310: 4b8b 473d c275 283d b17e 313d 26a1 90bd
00000320: 0c77 033e 93da d8be 5a3a 833e c03b 263c
00000330: d750 393d 6d0b 8ebd 3c8c 973d cac9 b63d
00000340: 9e93 5cbd ade2 71be ca47 313d 665a 9a3b
00000350: ceb1 89bf aa4f 3d3e e33c 8a3d 3f8a 2dbd
00000360: 9a7d 983e 6204 44bd bf31 8fbd 0e7a 2b3c
00000370: 10d0 a43c f20d 9cbd 8fb2 563d ef1b a1bf
00000380: 4bb0 883d 38ec c03d d56e 2fbd a062 66be
00000390: 079f aebc 67ec 7e3c f8e7 d7bd 82f6 e2bf
000003a0: a537 02bd 554f c63d c56e a43e c9c5 d7bb
000003b0: 4af9 cbbc ca29 db3d 544b 783c f5c9 72bd
000003c0: b9fe 003c ce97 d9bd 62ca 453c b75e 373d
000003d0: 5531 a73d 179e 503b 89bd 543d f609 a23d
000003e0: 809a 93bd b424 ec3d ca82 353d dec4 75bc
000003f0: 7207 8b3c f33f 1cbc 78d8 753c f687 0bbd
-0.042368338 -0.15025096 0.04459288 0.07910745 0.04757535 -0.08075871 -0.14883381 -0.007986655
-0.008460178 0.15743676 0.1814637 0.032691043 0.04860371 -0.08167775 -0.55004543 0.027486783
-0.046931077 0.08003523 -0.09604105 0.01629885 0.1430684 0.0057038185 -0.009785591 0.045983024
0.060573224 0.04457885 -0.11011574 0.06333853 0.012246906 -1.7715989 0.39471507 0.07042518
-0.01326167 -0.022313042 -0.07199841 0.03893356 -0.10119373 -0.02373616 -0.12544146 -0.051610462
0.02345771 0.05390253 -0.02919777 0.034646194 0.32088777 -0.006819094 -0.017980134 -0.0893843
0.07179846 0.06367324 0.15281524 -0.018715482 -0.058658462 0.02942245 -0.020199932 -0.08631035
0.023935122 -0.046209008 -0.06308747 -0.033143755 0.2542381 0.020501468 0.10463755 -0.017302826
-0.05475607 -0.0027779983 0.072290756 0.046066023 -0.08463441 0.03435768 0.0055069095 -0.15353402
0.03521035 -0.2759299 -0.049881846 0.02152313 -0.056131132 -0.037013955 -0.07594475 0.023778865
0.15335806 -0.0383213 0.2824906 0.05693338 -0.0038612348 0.19022267 0.033450324 -0.00015800374
-0.108169414 0.088087946 -0.0033244465 0.03572492 0.22124311 -0.24661815 0.03503089 -0.0694335
0.016622344 -0.24363637 -0.038811374 0.033153113 0.047518343 -0.17139749 0.24467456 0.04771977
-0.0013722649 0.0008463131 -0.022369847 -0.079498544 0.01568408 -0.032026596 0.031390578 0.056628197
-0.07282965 -0.10911007 0.009153949 -0.054185856 -0.0023699524 0.04185934 0.007583564 0.038941257
-0.0538795 0.21269488 0.01820541 -0.14806399 -0.0011887408 -0.06762504 -0.17521688 -0.028928256
-0.037129883 -0.09008693 -0.0076178093 -0.06680351 -0.07050817 0.05422494 -0.31046373 -0.03864668
-0.04814522 0.06042531 -0.10442573 0.019614948 0.021974578 0.02880761 -0.03560295 0.04993473
-0.80060893 -0.0056603025 -0.038527098 0.024833202 0.13597827 -0.047700007 -0.14529899 -0.093530625
0.13795485 0.0026042056 -0.1660449 -0.009155023 -0.07261955 -0.044128966 -0.055258896 0.05265853
-0.065259695 0.22208863 0.010363951 -0.044787057 0.053446714 0.07349269 -0.04499024 0.16667797
0.11108916 -0.15074718 0.054936964 -0.09698936 -0.073726535 0.2673645 -0.034156114 -0.02822931
-0.029330263 0.0027715769 -0.028162818 -0.09290154 -0.023701403 0.0270417 0.030141829 -0.16406359
-0.056084175 0.003955447 -0.016508712 0.0040258975 -0.020414216 -0.05009343 -0.0677792 0.08022255
-0.015940126 0.084205024 0.23140341 0.0035576236 0.048716825 0.041127928 0.043333713 -0.070619866
0.12838382 -0.4235426 0.25630456 0.010146081 0.04524311 -0.06935773 0.073997945 0.08925207
-0.053851716 -0.23621626 0.043281354 0.0047104834 -1.0757387 0.1848742 0.067498945 -0.04236817
0.29783326 -0.047855742 -0.0699191 0.010466112 0.020118743 -0.07619847 0.05241638 -1.258665
0.0667425 0.09420055 -0.042830307 -0.2249856 -0.021316065 0.015559292 -0.105422914 -1.7731478
-0.031791348 0.096831 0.3211576 -0.006584857 -0.024899144 0.1070133 0.015154678 -0.059274632
0.007873231 -0.106246576 0.012072178 0.04476806 0.08163706 0.003183251 0.051938567 0.07912056
-0.07207203 0.11530438 0.044314183 -0.01500055 0.016971324 -0.009536731 0.015005223 -0.03406521

layers.1.bias f4 [256]
00000000: 5030 87bc a7ab b33b 1572 5d3c 8178 adbc
00000010: 3146 09be dbb5 acbc ccc2 31be 653a abbd
00000020: 0cb6 4bbc 5dae b9bb bc4e 41bd 42a4 bbbd
00000030: 1fff bcbd b73a 90bd 931b 073d 7fd0 ecbc
00000040: 1c11 06bd 9e6f 0bbc 0e71 2c3c e125 b5bb
00000050: 2715 fc3d 5159 8fbb c049 27bc fdc6 30bd
00000060: 28bc e2bc dd83 34bd 8c01 55bd d5ce d7bc
00000070: 3ffc 86bc ea14 423e 6769 90b9 0cc4 cabb
00000080: 5990 4ebd 16cc 2fbd 943d 75bc e160 9fbc
00000090: 15c2 85bd a664 b13d 5bd7 93bd 1591 05bd
000000a0: a11d 3f3e f9e8 e7bc 7fa6 49bd 5011 c4bd
000000b0: 17a9 2a3d 324f 98bd 3dbe 50bd dbb1 15bd
000000c0: 21df 29bd 8ccb dabb 769c 81bd 0944 9dbc
000000d0: 839b 02bd 3395 36bd 54bd 0fbd f038 49bc
000000e0: 3fcb 1dbd 80f6 41bd 7516 1cbd 68b8 bbbc
000000f0: 42ad da3c b77f e8bc eb7c 52bd d413 c1bd
00000100: 0e18 8fbc cf28 63bc df90 eebb 2d27 2abc
00000110: 0aa7 debc 1b8c 85bc 5deb acbc 3363 b1bc
00000120: 58e8 15bc a2aa 9e3d 5e2d 4ebd 3cfa fdbc
00000130: c509 c1bb f146 2abc 205d aabc a572 0fbd
00000140: 37bc bfbc 20a9 fe3d 0d8e 2fbd 87fc 4abd
00000150: d68c 3d3e 797c 6e3d 2111 7e3e 877d e1bd
00000160: 22bb a63d a69e 63bc eaee ed3d 41d3 0abd
00000170: 73fa 34bc 920a 97bd a959 96bd 5e45 c0bd
00000180: eed1 2e3e 578f 1e3e 5075 3ebd 0b4b 8abc
00000190: c4f1 593d 8330 153e dc4c bebc 651a 16bc
000001a0: fa7a 18bd 3d41 5abc 5e25 88bc 19dd 99bb
000001b0: 63df 1bbd c93b 50bd a691 9fbd 5ddf 42bd
000001c0: c040 82bc 6d19 48bc 3007 89bb 90d3 003d
000001d0: 5f03 88bc e62c a3bc 3f79 f9bc 7f6d 6d3b
000001e0: 79e7 30bd bef3 56bc 2edd 29bd bf04 3bbb
000001f0: 13f5 4cbd 1128 5abd 6fc4 b3bd 4d29 10bd
00000200: 701d 7fbc 6205 1ebc 2619 3cbd 763d bfbb
00000210: b913 89bd d3f2 c6bc 8717 903d 4c9c fdbc
00000220: ac58 403e 9b5a 11bd 4a24 3bbd 4952 073b
00000230: dfd8 11bd a6d0 58bd de42 22bd 523d 433e
00000240: 764b a23c 3a65 00bd afc8 2cbc eb18 e5bc
00000250: d0aa 0a3d 7105 94bc f162 aabc be00 e3bd
00000260: 3e50 52bd 601c a8bd 18d5 59bd 6e2e 7ebc
00000270: bd82 8bbc d2b9 06bd 9541 f2ba 5154 05bc
00000280: 53cb 4dbd a6ad a93d 6b8f 8bbd 978c 2bbd
00000290: fc43 15bd efea b5bb 6aca bdbc d13e 9fbd
000002a0: 2233 36be 4c2d 43bd f2a6 e9bb a926 b3bc
000002b0: ebce d6bb 8be7 f83b b192 96bc f1b0 10bd
000002c0: b24f abbb 18f5 edbc d03e 64bd dcd8 ebbc
000002d0: 8513 febb ebf2 ce3d a56b 08bc 0b3e 80bd
000002e0: 062d 79bc 0ca5 cfbc a27e 40bd 3272 2ebc
000002f0: 136d 5ebd 860e 98bc 14a8 47bc 9688 b0bc
00000300: 5a23 8dbb 215f dbbd bb88 65bc 904a 333e
00000310: ed8f 143e 7261 9ebd 0fd2 b4bc 0e3d 90bc
00000320: a296 4e3c 34fb f43d 4922 d93b 569a a0bc
00000330: 4d26 f4bb b061 f8bc 1ae7 003e 3a50 20bd
00000340: e038 acbc e3c8 c5bd f346 0dbd d649 b8bd
00000350: 78f3 0b3d 3093 dc3c 85aa aabc ac26 28bc
00000360: a48d 833d 2347 bebd c2c6 87bc 97c7 6bbd
00000370: d013 09be ca27 ffbc a6ef 04bd e6be b83d
00000380: 0000 0000 04e3 9cbd 49b5 d5bb 543a f6bb
00000390: a6cf 86bd 1704 763d 6384 b33d c459 423e
000003a0: 92d9 53bd 308b 22bd 3148 90bb 941a 41bc
000003b0: 34c6 6cbc 4ee7 8abc 8452 0ebd 4957 3bbd
000003c0: af9c de3d 6a44 f3bc bf68 37bd 4eff ebbc
000003d0: f1b8 9abd fbdf cebc b24d 4ebd 1136 b7bd
000003e0: d79f 0bbd f6f7 c0bc 872f 8f3c 2cc5 18bd
000003f0: 3b3c 99bd f72e 48bc d380 c0bc ab9b 61bc
-0.01650253 0.005483109 0.013515969 -0.021175625 -0.13405682 -0.02108281 -0.17359465 -0.08360747
-0.01243354 -0.0056665377 -0.047194228 -0.09162189 -0.09228348 -0.07042449 0.03298528 -0.028908012
-0.03273116 -0.008510498 0.010525001 -0.005528197 0.12308722 -0.004374661 -0.010210454 -0.04315852
-0.02767761 -0.044071067 -0.05200343 -0.026343742 -0.016477702 0.1895329 -0.0002754435 -0.0061879214
-0.05043063 -0.04291924 -0.014968295 -0.019455375 -0.06531159 0.08661775 -0.0721881 -0.032609064
0.18663646 -0.028309332 -0.04923105 -0.095736146 0.041665163 -0.0743698 -0.050962675 -0.03654657
-0.041472558 -0.0066770967 -0.06328671 -0.01919748 -0.03188659 -0.04457588 -0.035092667 -0.012281641
-0.03852391 -0.04735422 -0.038107354 -0.02291508 0.026693944 -0.028381212 -0.051388662 -0.0942761
-0.017467525 -0.01386471 -0.0072804536 -0.010385317 -0.02717926 -0.016302159 -0.021108324 -0.021653747
-0.009149633 0.077473894 -0.050336234 -0.03100311 -0.005891057 -0.01039289 -0.020796359 -0.035021443
-0.023405178 0.12434602 -0.04286008 -0.049557235 0.18510756 0.058224175 0.24811222 -0.110102706
0.081411615 -0.013892805 0.11617835 -0.033892874 -0.01104604 -0.07375063 -0.0734132 -0.09388231
0.1707227 0.15484367 -0.046498597 -0.016881486 0.05320908 0.14569287 -0.023230009 -0.009161566
-0.037226655 -0.013321218 -0.01661938 -0.0046955463 -0.038054835 -0.050838266 -0.07791452 -0.047576297
-0.015900016 -0.012213093 -0.004181765 0.03145176 -0.01660317 -0.01991887 -0.030453322 0.0036228595
-0.0431895 -0.013119636 -0.0414707 -0.0028536764 -0.05003841 -0.053260867 -0.08777701 -0.035195637
-0.015570983 -0.009644838 -0.04592242 -0.005836184 -0.06693215 -0.02428571 0.070357375 -0.030958317
0.18783826 -0.0354868 -0.045688905 0.002064841 -0.035607215 -0.052933358 -0.03961455 0.1906636
0.019811373 -0.031346537 -0.010545894 -0.027965983 0.033854306 -0.018069 -0.020799132 -0.11084126
-0.051346056 -0.08208537 -0.053181738 -0.015513999 -0.017030114 -0.032892056 -0.001848268 -0.008137778
-0.050242733 0.08285074 -0.06814464 -0.041882124 -0.036441788 -0.005551688 -0.023167808 -0.07775653
-0.17792943 -0.04765062 -0.007130497 -0.02186902 -0.0065554283 0.0075959614 -0.018380495 -0.035324994
-0.0052280063 -0.029047534 -0.055723965 -0.02878993 -0.0077537918 0.10104927 -0.008326446 -0.06261834
-0.015208488 -0.025347255 -0.046995766 -0.0106473435 -0.05430324 -0.018561613 -0.012186069 -0.021549504
-0.0043071928 -0.10711504 -0.01400965 0.17508912 0.14508028 -0.0773343 -0.02207282 -0.017607238
0.012609156 0.11961976 0.0066264016 -0.019604843 -0.007450855 -0.030320019 0.12588158 -0.03913901
-0.021023214 -0.09657457 -0.03449149 -0.08998458 0.034167737 0.026925653 -0.020833263 -0.010263126
0.064235 -0.09290912 -0.016574267 -0.05756339 -0.13386464 -0.031146903 -0.03245511 0.09020786
0.0 -0.07660487 -0.006521855 -0.0075142775 -0.065825745 0.060062494 0.08765485 0.18979555
-0.051721163 -0.03968352 -0.004403137 -0.011786122 -0.014451552 -0.016955998 -0.03474666 -0.04573754
0.10869729 -0.029695708 -0.044777628 -0.028808262 -0.07554806 -0.025253287 -0.050367065 -0.08945859
-0.034087982 -0.023555737 0.017478717 -0.037297413 -0.07482191 -0.012218229 -0.023498928 -0.013770024

layers.2.weight f4 [256, 256]
00000000: 0e63 743d d3ca 11bd 6505 1ebd 1f37 0c3d
00000010: 72ee be3c c062 893d b523 8d3d ffc3 2dbc
00000020: 5bc9 87bd c8a2 3bbd ce1b a73c a07c 86bd
00000030: c0e5 bb3c c385 f3bc 0b03 493b 4e4e 09bd
00000040: 91cc c3bc b030 2abd 7cdc 98bd 0b7f 983d
00000050: af26 903c 599e a1bc 97af 3d3d ecff 8e3c
00000060: 8f4c 333d 9e75 493d d3e0 99bd d2a4 22bd
00000070: 98c0 aa3d 766a c93d 8aa1 193d 5ec1 6ebd
00000080: d95b 26ba cc36 fdbb 06e9 8c3c c710 c13c
00000090: b576 ca3b 87bf 17bd 4530 853d f0aa a53a
000000a0: cb60 1abd d290 5fbd f6dc 8a3c 91c6 83bd
000000b0: c217 2abd 1206 47bc 0225 3d3d 4363 70bd
000000c0: e089 84bd 1f78 78bd d70a 92bd d3a4 a83d
000000d0: 5113 3fbd 7ce3 93bd 053e 35bd b237 383d
000000e0: f6ac d4bc a538 8e3d 424c 59bb b13b 923c
000000f0: 0e49 173d 40d6 f43c 5c5a 9bbd 1bf1 253c
00000100: e050 a33d 49dc 27bd c09f e1bc c40f 2abd
00000110: b340 86bd 70f3 3d3d 4e63 a3bc 6a72 083d
00000120: 73c9 b8bc dbf1 793d f358 19bd e883 44bd
00000130: 9712 8bbd 8371 413c c7bd 8dbc b7f7 a0bd
00000140: 581f 5e3d eef8 dabc e52d 42bd 765f 9fbb
00000150: 8c40 3dbd d4de 42bb 3c14 133d 5c71 1e3c
00000160: b8ee 8eba 7db9 70bd 86fd d13c 90b1 193d
00000170: 029a 8dbd 91f6 d3bb 67b7 46bd cb70 3b3d
00000180: 97de 243d bd80 133c 08da e03b ab8c a3bd
00000190: d2dc 4d3d 9fce 863d f9cf 153d 0e2e 003d
000001a0: 2ea8 94bd b770 6abd 8f2e abbb b883 0d3d
000001b0: 8b56 16bd c4a1 0ebd 2c50 72bc 97b5 5e3d
000001c0: bde2 ed3c 73ab 80bd 1982 5dbd 9029 973b
000001d0: 482c 303d a3ec ba3c a7f1 fa3b 4d5d 9b3d
000001e0: 6934 29bc 29a7 56bd 420b 1dbd 2036 233d
000001f0: d517 8cbd b25d 98bd 8cc3 64bd e00c d8bc
00000200: 7526 04bd fea2 803d 850a 8f3d e853 233d
00000210: acbf 673d 6dd2 eebc 04c2 4bbd d2b3 673d
00000220: 02d7 75bd 4b6f 94bc 0a0a 453d e325 b3bc
00000230: bfad f63b bcff d93c bd25 17bd 10c3 6e3d
00000240: 2c68 683c 222f 73bd ae2b bf3c 7c2d 783d
00000250: d005 b93d a2fc 0fbd 04f9 7b3d 3018 33bd
00000260: b358 6dbd d44d 1cbd 5e1f 413d 8d61 64bd
00000270: 20ba b1bc bb09 be3c 9b7d 21bd c755 ab3d
00000280: ec03 1fbd 4ac4 0a3c 059a aebd e550 c53c
00000290: f401 e8bc eb77 733d d645 393d 67ad 183c
000002a0: 2642 993d bd84 85bd ae47 153c 9d5a 993d
000002b0: 266e 63bd 7ff3 f8bd 5523 af3c dcaa 913d
000002c0: a71b acbd e4ca 913d d5ec a93d a717 803d
000002d0: de31 0abd 0d3c 6a3d 6c40 67bd 6055 6ebd
000002e0: e56b 10bc d031 2e3d 8196 44bd 0c79 1f3c
000002f0: 702f 6ebd d822 6fbd 57e3 8e3d b32c 923d
00000300: 256f 3a3d 1c2e 11bd bafc 25bd 6912 853d
00000310: 2902 3ebc c6db b6bd cb1a 4e3d 6fb8 633d
00000320: 49bd 273d b033 56bc ce43 81bb 2cbf ee3c
00000330: 03d1 353c 9694 923d 7d89 6c3c 51f3 0cbd
00000340: b58d 3bbc 4d54 88bd 9901 753d 7891 98bd
00000350: c5db 3cbd 0897 273d 77a8 97bd 3f60 78bd
00000360: 3eb9 293d 43ed 15bd 912f 12bd ad48 f6bc
00000370: 93f0 a53c 1b66 8cbc 52aa 2e3c f3b3 983d
00000380: 04ac 113d 076e eabc 26e8 983d a03e 8ebc
00000390: 95c2 ed3c e65b 0d3d 7d36 8d3d 9e73 cb3c
000003a0: 2e50 8ebc a9d8 7ebd 0b3c fe3c fed9 833d
000003b0: 53d1 be38 5d68 55bd de20 e1bc 7306 c2bc
000003c0: 3c08 3d3d d1ec 573d d793 4a3c d5a5 a4bd
000003d0: 5da8 10bc 6893 7bbd 04e7 623c 486a 633c
000003e0: eac8 2dbc 7012 17bd 835c 103c dd2a e9bc
000003f0: 209b 60bb 9053 bfbd 72cd 5b3d ecf1 5e3d
0.05966478 -0.03559382 -0.038579363 0.034232255 0.023307059 0.06708288 0.06891576 -0.010605811
-0.066302024 -0.045809537 0.020399 -0.06566739 0.022936702 -0.029726868 0.003067198 -0.033521943
-0.023901256 -0.04155034 -0.07463929 0.074461065 0.01759657 -0.019728826 0.046310034 0.017456017
0.043774184 0.049184434 -0.07513585 -0.039707966 0.083375156 0.09834759 0.03750757 -0.058289878
-0.0006346084 -0.0077274796 0.017200958 0.02356757 0.0061787018 -0.03704789 0.06503347 0.0012639444
-0.037689965 -0.05458147 0.016951066 -0.06434358 -0.041526563 -0.012147443 0.04617787 -0.058688413
-0.0647161 -0.06066143 -0.07130974 0.08234563 -0.04664928 -0.072211236 -0.0442486 0.04497499
-0.02596138 0.06944398 -0.0033157025 0.017850729 0.036934905 0.029887319 -0.07585594 0.010128285
0.0797441 -0.040981565 -0.027541995 -0.04151894 -0.06555309 0.04637474 -0.019944813 0.03331224
-0.022556996 0.061021667 -0.037438344 -0.047977358 -0.06790655 0.011806848 -0.017302407 -0.07859748
0.05422911 -0.026730027 -0.04740705 -0.0048636748 -0.046204135 -0.0029734867 0.03590797 0.009670582
-0.0010904884 -0.058770645 0.025633585 0.037522852 -0.0691414 -0.006468602 -0.04851475 0.045761865
0.04025134 0.009002862 0.006861929 -0.07985815 0.05025942 0.065823786 0.03657529 0.03129392
-0.0725864 -0.0572364 -0.005224056 0.034549445 -0.036703628 -0.03482224 -0.014789622 0.054372396
0.029038781 -0.06282701 -0.05407915 0.004613109 0.04301098 0.022817915 0.0076582017 0.07586155
-0.010327437 -0.05240551 -0.038340814 0.03984654 -0.06840483 -0.07439746 -0.05585055 -0.026373327
-0.032263238 0.06281088 0.06984428 0.03987494 0.056579277 -0.029153073 -0.049745575 0.056567974
-0.0600195 -0.018119475 0.048105277 -0.021868652 0.0075280364 0.026611201 -0.036901224 0.058291495
0.014184993 -0.05937112 0.023336258 0.060590252 0.09034312 -0.03515304 0.061516777 -0.04372424
-0.05794592 -0.03816016 0.047149055 -0.055757094 -0.021695197 0.023198 -0.039426427 0.0836597
-0.0388221 0.0084696505 -0.08525471 0.024086425 -0.028321244 0.059440535 0.045232616 0.009318686
0.0748332 -0.065194584 0.009111328 0.07487986 -0.055524968 -0.12155818 0.021379152 0.07112667
-0.08403712 0.071187764 0.08297125 0.06254511 -0.033738963 0.057186175 -0.05645792 -0.05818689
-0.008814787 0.042527974 -0.047995094 0.00973345 -0.05815071 -0.05838284 0.069769554 0.07137432
0.045516152 -0.035444364 -0.040524222 0.06497652 -0.011597195 -0.08928637 0.05031852 0.05559581
0.040952 -0.013073847 -0.0039448505 0.029143892 0.011097196 0.07157247 0.014437077 -0.034411732
-0.01144736 -0.06656704 0.059815977 -0.07449621 -0.046108026 0.04091552 -0.07405179 -0.060638662
0.041436426 -0.036603224 -0.035689894 -0.030063951 0.020256316 -0.017138531 0.010660725 0.074561976
0.035564438 -0.028616918 0.07466154 -0.017363846 0.029023448 0.03451147 0.068951584 0.024835404
-0.017372217 -0.062218342 0.03103449 0.06438063 9.098896e-05 -0.05210148 -0.027481493 -0.023684716
0.04615043 0.05271608 0.012364349 -0.080394424 -0.008829203 -0.061419874 0.013849024 0.01388032
-0.010606984 -0.036882818 0.008811119 -0.028462822 -0.003427215 -0.0934211 0.053662725 0.054429933

layers.2.bias f4 [256]
00000000: 3f05 163d 8a54 06bd 92db 3fbd 3fcc 49bd
00000010: 4b52 4fbd e081 65bd d300 d13d 14c7 5dbd
00000020: d039 54bd f799 53bd 6d83 f4bc ff11 f93d
00000030: ef76 263d bf56 08bd 952b 10bd 09a9 babc
00000040: 16fd 6abc 3e1f 693d 90bd 17bd 1b05 873c
00000050: d4e6 cebc 3d23 59bd 67b3 42bd 411f 0e3d
00000060: 423e 9c3d 7dc9 1dbe 8982 c53d a8fe 82bc
00000070: 2658 d83b a19d 3cbe bc22 6ebd 2f10 23bd
00000080: d78f f5bb 6959 433c daf7 6a3d fe1d ebbb
00000090: f64b 8dbc 61a0 a93d e2fe bbbc 7873 27bd
000000a0: 7fcd f8bc c43a 2f3d 1c1d 97bc 1c9a 52bc
000000b0: a1a4 883d 7b5d a8bd c2cb cc3d 0d82 c1bc
000000c0: 8bfd bdbd 5a35 28bd 49bf 32bd b219 c5bd
000000d0: d205 ccbd 2d12 803d 6dce cfbc ebcb 583d
000000e0: 026b 16bd 5863 9aba 4386 66bd 54c6 27bd
000000f0: 0635 513b c657 8dbc 429e 90bc 18c3 c3bc
00000100: 2b8a 3cbc 7693 47bc c99c 64bc 5c55 d6bc
00000110: eb19 783d d81d 90bd dc30 80bc 09b2 14bd
00000120: 9b50 693e f08f 39bc 7062 813c 9f5e 0d3c
00000130: bfa7 7abd 0920 84bc be9e 32bd ab90 c3bd
00000140: 38c0 ebbc 9bc0 5ebc ca13 0a3d 2765 a8bc
00000150: 1cb8 23bd e290 33bd 2ae3 6cbd abc7 f9bc
00000160: 876c 38bb 7446 34bd e2f8 d1bd 98be 29bd
00000170: 3cde 34bd ff82 e7bc b4b2 dfbc 56e9 21bd
00000180: 0c9e 0abd c4c6 bbbc fde4 d8bc 9005 773d
00000190: f895 783d c874 af3d c6b1 65bc be23 4fbc
000001a0: 124e eebc 00ef 83bd 687c bbbc 320a e1bc
000001b0: bf6b e7bd fb3d 0dbc 4269 14bd 221f 8ebc
000001c0: 40fc cf3b d138 db3c b7e5 12bc 9316 60bd
000001d0: 585d fdbc 8ac1 f5bb 9139 ccbc 21fb 0fbe
000001e0: 21c1 4dbd 0085 27bd 5e2e 1ebc 03dd 293b
000001f0: 63ab a23c 6df1 17bd 5b96 dbbc 0a73 fcbc
00000200: 3eab 53bd 3ee0 5ebd 32f4 d9bd c7ef d8bc
00000210: 6b96 7cbc 28a7 0dbd 5f49 013d b505 03bd
00000220: 561e 8abd 356f d4bd 293a 913d 5870 723c
00000230: d37c 1bbd 2b9f 15bd cd1e 7abd f2ac 0bbd
00000240: 4e97 d7bc 7529 32bd c99a 923a 6953 4abe
00000250: 9925 34bc a6f9 a3bb 395e 05bd 4946 b53d
00000260: c4c9 2cbd 79ea 133d 602f b5bc eab9 febc
00000270: 159b 39bd 5d2d 5f3d 87d7 31bc b130 11bd
00000280: f5a2 a9bd 819f 3ebd 4aed aeba ead5 f6bc
00000290: 8c66 c03d fa13 38bd dcfc 36bd a517 a73c
000002a0: aa44 173d 978c 59bd 4df5 ba3c a8da 76bd
000002b0: 17a3 89bd acfd b0bd 3b2e c2bb cfda 2cbc
000002c0: e079 2dbd b6ef 17bd 8584 6cbe b519 18be
000002d0: 36fd 68bd 5874 73bc 54f7 b1bc 9beb 1dbe
000002e0: f9f3 c03d 544f 16bc d7d4 2ebd b0b9 95bc
000002f0: 3f4e b6bc 4204 61bc 7bd7 9dbc b1db 9e3c
00000300: 1f78 97bc ec6a 13bd 4620 54bc 2e90 e039
00000310: 70cf 12bd a569 25be 866f 773d 8df9 91bc
00000320: c978 f8bb b47d 66bd 281a 23bd d45a f7bc
00000330: 37cc dabc de4b a4bc 28d4 aebc e209 bbbc
00000340: 67bf 43bc 585a 4d3d 78ab 17bd b243 55bc
00000350: 42e1 83bd 5522 34bd 5707 b3bc a7a4 ecbc
00000360: a0ca 0fbd 590c dcbc 2771 85bc 315f b23b
00000370: 3a2c adbc af5c 123c 3171 4abc 4791 43bd
00000380: f781 72bc 251a 73bd c1f5 c8bc 6858 07bd
00000390: 708f 153e edf5 0d3d 8a81 2dbd d688 77bc
000003a0: 0c7b 7cbd 01dd 99bb b896 09bd 2c58 6cbd
000003b0: de4b e6bc 71f9 15bb 7f57 7e3d 22af 36bd
000003c0: 5971 debc ac0d 44be 8ee7 45bc e19d 2b3d
000003d0: c4ff a93d b44b 7dbd adb3 b1bc 72d0 d2bb
000003e0: 8289 4ebc 6c7b 813d 257b afbc d411 e6bb
000003f0: 895b b33d e6cd 80bc 948b a3bc c6e2 c2bc
0.036626097 -0.032795466 -0.046840258 -0.04926705 -0.05061559 -0.05603206 0.10205235 -0.054144934
-0.051812947 -0.051660504 -0.029847825 0.121616356 0.040640768 -0.033285853 -0.035197813 -0.02278568
-0.014342567 0.05691456 -0.037046015 0.016481927 -0.025256552 -0.05301212 -0.047534373 0.034697775
0.07629062 -0.15408893 0.09644038 -0.01599057 0.006602305 -0.18419506 -0.058138594 -0.039810356
-0.0074939537 0.0119231725 0.057365276 -0.007175206 -0.017248135 0.08282543 -0.022948686 -0.040881604
-0.030371426 0.042780653 -0.018446498 -0.012854125 0.066720255 -0.08220955 0.09999801 -0.023621583
-0.09276875 -0.041066505 -0.043639455 -0.096240416 -0.09962048 0.06253467 -0.025366986 0.052928846
-0.036723144 -0.0011778874 -0.056280386 -0.040960625 0.0031922474 -0.017253768 -0.017653588 -0.023896739
-0.011507551 -0.0121811535 -0.013953396 -0.02616375 0.060571592 -0.07036942 -0.015648298 -0.0363026
0.22784655 -0.011325821 0.015794009 0.008628516 -0.06119513 -0.016128557 -0.04360842 -0.095490776
-0.02877818 -0.013595725 0.03371028 -0.020556046 -0.039970502 -0.043839343 -0.057833828 -0.030490717
-0.002814086 -0.0440125 -0.10252549 -0.04144153 -0.04415725 -0.028260706 -0.027306892 -0.039529167
-0.03384213 -0.022921927 -0.026476378 0.06030804 0.060689896 0.08567196 -0.014019435 -0.012642799
-0.029089961 -0.0644207 -0.02288647 -0.027470682 -0.11299848 -0.008620734 -0.036233194 -0.01734883
0.006347209 0.02676049 -0.008965901 -0.05470903 -0.030928299 -0.0074998783 -0.024929794 -0.14060642
-0.05023301 -0.040898323 -0.0096546095 0.0025919087 0.019857114 -0.037095476 -0.026805094 -0.030816574
-0.05167698 -0.054413073 -0.1064228 -0.026481522 -0.015416722 -0.03458324 0.031564113 -0.031987865
-0.06744067 -0.103727736 0.07091171 0.014797293 -0.03796084 -0.036528748 -0.06106453 -0.03410048
-0.026317265 -0.043496568 0.0011185046 -0.19758381 -0.010995292 -0.0050041256 -0.03256056 0.088512965
-0.042184606 0.036112282 -0.022117317 -0.03109451 -0.045313913 0.05448662 -0.010854608 -0.035446826
-0.08283035 -0.046538834 -0.0013345864 -0.030131299 0.09394559 -0.044940926 -0.04467474 0.020397017
0.036930718 -0.053112593 0.022822047 -0.06026712 -0.0672056 -0.08642134 -0.0059259213 -0.010550215
-0.042352557 -0.03709384 -0.23097427 -0.14853556 -0.056882106 -0.0148592815 -0.02172438 -0.15421908
0.09421534 -0.009174187 -0.04268345 -0.01827702 -0.022254108 -0.013733925 -0.019267788 0.019391866
-0.018489895 -0.03599064 -0.012947148 0.00042832032 -0.03584236 -0.16153581 0.06040909 -0.01781919
-0.007582758 -0.056272224 -0.039819866 -0.030194677 -0.026708705 -0.020055708 -0.021341398 -0.02283186
-0.011947489 0.050134987 -0.03702876 -0.013016628 -0.06439449 -0.043978054 -0.021854086 -0.028887106
-0.035105348 -0.026861357 -0.016289307 0.0054434766 -0.021139253 0.00893323 -0.0123560885 -0.04774597
-0.014801494 -0.059351105 -0.024531247 -0.033043295 0.14605498 0.03465836 -0.042359866 -0.015108308
-0.061640784 -0.004695535 -0.033591002 -0.057701275 -0.028112348 -0.0022884274 0.06209516 -0.044600613
-0.027153658 -0.1914584 -0.012079133 0.041898612 0.083007365 -0.061839774 -0.021692121 -0.00643354
-0.012606027 0.06322369 -0.021421025 -0.0070211682 0.08757693 -0.01572318 -0.019964017 -0.023789775

layers.3.weight f4 [256, 256]
00000000: 30ff 8bbd f98c 2ebd da5a fdbd e1fd 8bbe
00000010: aa5c b0bf 6af7 643d 7e55 b4bd ce9b 42bd
00000020: 1706 62bd c0ea 22bc 3085 80bd 8367 8f3c
00000030: 5884 b1bf 5a32 eabd e044 2cbf 39dc 2c3d
00000040: 4193 93bd 8569 3ebc 7087 7e3c d449 0cbe
00000050: 9a55 e7bc 2715 67bf 49ef 8ebc a346 86bf
00000060: 6909 0c3d 9d70 debb 8117 02bd 55bf 3b3c
00000070: e7b2 c7bd 34cd 143d 56e1 7dbd 6d04 6ebf
00000080: df99 92bd 89e5 7abd c698 b23b e686 eabc
00000090: 1cd2 6cbd b604 41bd 5ce3 a8bf 355f 60bd
000000a0: 08d7 e5bb fb8e 333d d3d5 723d 023e 2c3d
000000b0: 8bc6 9ebd 4ea6 81bd 287c b9bd 09fe 933d
000000c0: 06ad fc3d d9fb 16bc 74e1 cabd f195 96bc
000000d0: 063e 193e 4978 15bd 6cce 17bf 7c03 99bd
000000e0: 3648 c5bd 9ca7 503d 48f8 9ebd 36b8 59bd
000000f0: d9d2 02be a4b0 1cbe 1add e4bb 1685 cabc
00000100: dacd 883c 2fe8 f2bc f2b6 83be 2629 ee3c
00000110: c81c 8cbd 5b1d 02be c1a0 82bd c3ee a8bd
00000120: 4aae 93bd d5c9 3bbd d90d 36be 7333 8d3d
00000130: 93db 20bd 7eda 07be 1134 243d 8b11 b9bb
00000140: 43f2 303c 6ad0 473d d2e2 b93d cbb1 f03c
00000150: 4b25 36bc c39c 3a3d f783 833b 5a36 cabc
00000160: 52f6 2e3d b921 a43c e8ca 83bd fd68 c2bc
00000170: 981f 4c3d 2705 2cbd 2ad8 a13d a88b 87bd
00000180: 1e1d 25be 1078 24bf 43dc ee3b fcca 0ebe
00000190: b67b 373d 7bed 453d 42a9 4abe 9577 653c
000001a0: 8c91 1e3d 0d97 9fbc aad3 42ba 57fa a3bd
000001b0: c180 b83c 11fe 43be 3061 a73b bd52 ce3d
000001c0: 85b7 c73d f1b5 d13d 54ab 3f3d 1587 453c
000001d0: 82d1 333d a090 243d 4165 5fbd 3491 6bbc
000001e0: 946b b73c 9403 69bd 0098 1e3d e849 573d
000001f0: 99c4 57bd 9182 ddbd 5eda 67bf 3e78 9abd
00000200: 4595 05bf 6a1f d83c 38be 5fbc 8faf debe
00000210: 6878 38be 164f 8ebf ef80 653d 693b f63c
00000220: 60bf 9b3c 7f0a b8bd e3b7 e23d 3a06 8dbd
00000230: e423 c83c 64a4 52bc 4d60 80bb ecb7 90be
00000240: ab4b cf3d c2a1 81be 600f 15be ecf8 18bd
00000250: 22fd dc3d 30b0 f9bd ba93 a23b 34a2 e4bd
00000260: d3a0 54be 8332 d7bc 6d80 bebd 2b84 45bc
00000270: d934 ab3d aeb7 31bd 0a9d 48bd a70d ad3c
00000280: ed21 afbe 457f 04bf 6c64 1ebd 73e8 413d
00000290: 0897 f23b c7fe bebc a186 33be f4bc 86bd
000002a0: 9fe8 21bd caa4 ffbc e975 643d 5bb6 83bc
000002b0: 1d89 febd edee de3c 7865 313c 053f a63d
000002c0: e88b a13c f6e7 3b3d ad1a 88bc 97e4 9abd
000002d0: d3bc 10bd 9656 84bd 9928 c13c 1e4f 7cbd
000002e0: 9839 413d f404 77bc cf90 11bd 0733 1fbd
000002f0: 5dbc b1bd 2254 4b3c aba1 b4bd 6732 bebd
00000300: 2b7a d1bd 46e1 22be 6b2a 543e 212a ed3d
00000310: a506 ddbd 1647 03bf f84d a9bf 7d61 85be
00000320: 0cb4 a6bd 122a 423e 3650 2c3d 38de 96bd
00000330: 6ad5 9b3c f4d7 01bd cd43 8bbd f3f4 20bd
00000340: 225d dd3c 2bd6 3cbf 1094 11bc 5d3f 91bc
00000350: c02e 12bd e827 193c f43c 81bd b719 9dbd
00000360: 1999 bbbd 10cd 523a c035 61bd 595f 78bf
00000370: 5dc7 f43c 2021 953b bb88 b3bd c58b e53c
00000380: 5cbf bb3d 0522 9a3c 0579 65bf ced0 873d
00000390: fb70 0a3b ea9e a83b 7049 7a3d 133d 20bd
000003a0: b765 b7bd 9d9c 11bd 48c0 d63c 6065 a73d
000003b0: fac9 4bbc d43b 863c cad4 253d 9d1e 39bd
000003c0: 55fa 0bbe 5a92 4c3d 49fd 303d e0da e6bb
000003d0: b762 683d ca91 d4bd 2045 ecbb b1e9 5a3d
000003e0: 2810 69bd ee57 943d a2ea 903c 52af ce3c
000003f0: 814d e43c ce0e 663d 80fa 373d 0e01 d5be
-0.068357825 -0.04261491 -0.12370844 -0.27342132 -1.3778279 0.055900015 -0.08805369 -0.04751187
-0.05518159 -0.009943664 -0.062754035 0.017505413 -1.3868513 -0.11435385 -0.67292595 0.04220221
-0.07205821 -0.0116218375 0.0155352205 -0.13700038 -0.02823906 -0.9026665 -0.017448084 -1.0490307
0.03418866 -0.006788327 -0.031760696 0.011459191 -0.0975092 0.03632851 -0.061982475 -0.92975503
-0.07158255 -0.061254058 0.005450341 -0.028628778 -0.057817563 -0.047123633 -1.3194385 -0.054778297
-0.007014159 0.04383753 0.05928595 0.042051323 -0.07752713 -0.06330548 -0.09056884 0.07226188
0.12337689 -0.009215319 -0.09906283 -0.018382045 0.14965066 -0.036491666 -0.5929935 -0.07471368
-0.09632914 0.050941095 -0.077622 -0.053154193 -0.12775744 -0.15301758 -0.006984365 -0.024721663
0.01669972 -0.02965173 -0.25725514 0.029072355 -0.06841427 -0.1270651 -0.063783176 -0.08248665
-0.072109774 -0.04584678 -0.1777872 0.06894579 -0.039271902 -0.13266942 0.040088717 -0.0056478432
0.010799947 0.048782744 0.09076466 0.029381653 -0.01111729 0.045559656 0.004013534 -0.02468412
0.042715378 0.020035611 -0.06435186 -0.023731703 0.049834818 -0.0419971 0.07902558 -0.06618434
-0.16124389 -0.642457 0.007289441 -0.1394462 0.044795714 0.048322182 -0.19791129 0.014005561
0.038713023 -0.019481206 -0.0007432053 -0.08006733 0.022522332 -0.19139887 0.005108021 0.10074375
0.097518004 0.10239781 0.04679425 0.012056132 0.043900974 0.040176988 -0.054539923 -0.014377881
0.022390164 -0.056888178 0.038719177 0.052560717 -0.052677725 -0.10815919 -0.90567577 -0.075424656
-0.5218089 0.026382167 -0.0136561915 -0.43493316 -0.18014681 -1.1117885 0.056031164 0.030057626
0.019012153 -0.08986377 0.1107023 -0.06885953 0.024431176 -0.012856577 -0.00391773 -0.2826532
0.101218544 -0.25318724 -0.14556646 -0.037346765 0.10790469 -0.12191808 0.004961458 -0.1116375
-0.20764475 -0.026269203 -0.09301839 -0.012055437 0.08359689 -0.04338806 -0.04897789 0.021124674
-0.3420557 -0.517567 -0.03866999 0.04734082 0.0074032582 -0.023314847 -0.17531826 -0.06579009
-0.039528485 -0.031206507 0.05577651 -0.016078165 -0.12428496 0.027213538 0.010827415 0.08117489
0.019720033 0.045875512 -0.016614283 -0.07563131 -0.035336327 -0.064618275 0.023578929 -0.06159889
0.047174066 -0.0150768645 -0.03553849 -0.038867023 -0.086785056 0.012410196 -0.08819898 -0.09286957
-0.1022838 -0.15906247 0.20719306 0.11580301 -0.10792283 -0.51280344 -1.3226919 -0.2605094
-0.0813981 0.18961361 0.042068683 -0.073666036 0.019022662 -0.03170009 -0.06800041 -0.0392961
0.027021948 -0.73764294 -0.0088853985 -0.01773041 -0.035689116 0.009347893 -0.06310454 -0.0767092
-0.091600604 0.0008041421 -0.0549829 -0.9702049 0.02988022 0.004551068 -0.08766314 0.028020749
0.09167358 0.01881505 -0.89637786 0.06631623 0.002112447 0.005145897 0.06110519 -0.039120745
-0.089549474 -0.03554975 0.026214734 0.081736326 -0.012438292 0.01638595 0.040486135 -0.04519521
-0.13669713 0.04994426 0.0432103 -0.007045135 0.056734767 -0.103793696 -0.007210389 0.05344552
-0.056900173 0.07243334 0.017690007 0.025230084 0.027868988 0.056166463 0.04491663 -0.41602367
