Full_Graph.pt (torch, 17039 bytes, 8 tensors)

layer1.attn_l f4 [1, 2, 256]
0	0x3eb08618	0.34477305
1	0xbc0fbf99	-0.008773708
2	0x3f4a918a	0.79128325
3	0x3d0f5fb7	0.03500339
4	0xbd01fb26	-0.031733654
5	0xbc0c1b3f	-0.008551418
6	0xbc19ea82	-0.00939429
7	0x3c37beea	0.011214951
8	0xbb9e9270	-0.004839234
9	0x3e4f8564	0.20265728
10	0x39d86ce5	0.00041279863
11	0x3ee9d413	0.45669612
12	0x3e380997	0.17972408
13	0xbddde998	-0.1083557
14	0xbbdaf17e	-0.00668162
15	0xbed3b73d	-0.41350737
16	0xbb0ce6f4	-0.0021499963
17	0x3ee851fb	0.45375046
18	0x3c703e60	0.014663309
19	0x3ed8dc07	0.42355368
20	0x3a0a5429	0.0005276823
21	0xbc2811f9	-0.010258191
22	0x3ea3163b	0.31852898
23	0xbca4ac2b	-0.020101627
24	0x3e502cfc	0.2032966
25	0xbef21be1	-0.47286895
26	0x3f0b5212	0.54422104
27	0xbb6f443f	-0.0036509184
28	0x3ae4dfcc	0.0017461716
29	0xbd8f437e	-0.06995295
30	0x3e634d77	0.22197519
31	0x3e0bb1ba	0.13642016
32	0xbcc28ae2	-0.023747865
33	0xbd3c8d12	-0.046032973
34	0x3d2109ef	0.039316114
35	0x3f4782f9	0.77934223
36	0x3e73b890	0.23800874
37	0xbd156974	-0.03647752
38	0x3f03fb13	0.51554984
39	0x3f192e97	0.59836715
40	0x3eb7214c	0.3576759
41	0xbdb4ea6a	-0.088337734
42	0x3c3f7eaf	0.011687919
43	0x3e195072	0.14972094
44	0x3eed8eba	0.46397954
45	0x3bb8a391	0.005634733
46	0x3cf31ac7	0.029675854
47	0x3ede412f	0.43409106
48	0xbcaf2534	-0.021380045
49	0xbeff5b40	-0.49874306
50	0xbb9448fc	-0.004525302
51	0xbe965f32	-0.29369503
52	0xbcfa97b9	-0.030589925
53	0x3cadf7ea	0.021236379
54	0x3ee5a2fb	0.44850907
55	0xbe232e06	-0.15935525
56	0xbe63932b	-0.22224109
57	0xbbb2842b	-0.0054478846
58	0xbef53789	-0.47893932
59	0xbe04e0b3	-0.12976341
60	0x3eac0742	0.33599287
61	0x3bc9099d	0.006135179
62	0x3f053340	0.52031326
63	0xbe083b36	-0.13303837
64	0xbd8518ec	-0.06498894
65	0xbb2cd861	-0.002637409
66	0xba21e7bc	-0.0006176194
67	0xbe903c41	-0.2817097
68	0xbe0dc9fd	-0.13846584
69	0x3ebed9da	0.37275583
70	0x3ac75bac	0.0015209815
71	0x3e95d018	0.29260325
72	0x3cce44d3	0.025179302
73	0x3c09a8bd	0.008402047
74	0xbc501a1e	-0.012701539
75	0xbde643ac	-0.11243376
76	0xbd22e816	-0.039772116
77	0x3f312760	0.69200706
78	0x3f22e7b7	0.6363482
79	0xbecf4f26	-0.40490073
80	0xbafbb3c4	-0.0019203355
81	0xbc84221f	-0.016129551
82	0x3cee2e43	0.029074794
83	0x3e93bb2c	0.28853738
84	0xbb74e641	-0.0037368687
85	0x3e56d278	0.20978725
86	0xbc857a83	-0.01629377
87	0xbd9847bc	-0.07435557
88	0x3e923c5f	0.28561684
89	0xbb199042	-0.0023431932
90	0x3d132f1d	0.035933603
91	0x3be4d354	0.0069832
92	0xbacc013d	-0.0015564334
93	0x3c8e5903	0.017376428
94	0xbd0d9560	-0.034566283
95	0xbf030046	-0.5117229
96	0x3f09f920	0.5389576
97	0xbcf34232	-0.02969465
98	0x3ea6baed	0.32564488
99	0x3f138681	0.5762711
100	0x3c829ca8	0.01594384
101	0xbc930a16	-0.017949145
102	0xbe974af5	-0.29549375
103	0x3f16375e	0.58678234
104	0x3d97de57	0.07415455
105	0x3eae3a60	0.34028912
106	0x3eb692ef	0.35658976
107	0x3c065cfb	0.008200879
108	0x3ec07ace	0.37593693
109	0x3d38cbad	0.045116115
110	0x3de58d87	0.11208635
111	0x3e56f84c	0.20993155
112	0xbec60c5b	-0.386813
113	0xbf1feacd	-0.6246765
114	0xbf140dea	-0.5783373
115	0x3a807fd0	0.0009803716
116	0xbe9b1534	-0.30289614
117	0x3bd8ae71	0.006612592
118	0x3c6eb201	0.014568807
119	0xbcc882c9	-0.024476426
120	0xbd669112	-0.056290694
121	0xbd50afbd	-0.050948847
122	0xbbd92e95	-0.0066278675
123	0x3c12526e	0.008930786
124	0xbba90bae	-0.005158863
125	0xbdc5a1ff	-0.09650039
126	0xbad3ada5	-0.0016149773
127	0x3f05a14b	0.5219924
128	0xbf109265	-0.5647338
129	0xbd4bc4cc	-0.049748227
130	0xbf0ce50e	-0.5503701
131	0xbc896a7c	-0.016774409
132	0x3c406c10	0.011744514
133	0xbbe9592d	-0.0071212263
134	0x3c21261c	0.009835746
135	0x3ed24948	0.41071534
136	0x3d7e3cf9	0.062069867
137	0x3ae0f6ad	0.0017163359
138	0xbdf7da04	-0.1210213
139	0xbdab41fb	-0.08362194
140	0x3bbe697d	0.005810915
141	0xbf05add6	-0.5221838
142	0x3ec9c671	0.3940921
143	0x3ec220e2	0.37915713
144	0x3ec62110	0.386971
145	0xbc786743	-0.015161338
146	0x3d715c94	0.05892618
147	0xbc673c2f	-0.01411347
148	0xbc1c1713	-0.009526986
149	0xbb4de073	-0.00314143
150	0xbe8f6f5c	-0.28014648
151	0xbed1c3f1	-0.40969804
152	0x3bc35525	0.0059610778
153	0xbc8b161b	-0.016978314
154	0x3f00ed0e	0.50361717
155	0x3c6f7a4d	0.014616561
156	0xbbb81464	-0.005617665
157	0x3e827b1e	0.25484556
158	0xbf0c8054	-0.54883313
159	0x3ef061e6	0.4694969
160	0xbe0b769c	-0.13619465
161	0xbf044884	-0.5167315
162	0x3c424cfb	0.011859174
163	0x3b0a7cd8	0.0021131542
164	0x3e4d78c5	0.20065601
165	0x3f597740	0.84947586
166	0xbc9176f3	-0.017756915
167	0x3c98f7cf	0.018672852
168	0xbde24a80	-0.11049366
169	0x3eb5861f	0.3545389
170	0xbd3704ae	-0.044682197
171	0xbed19127	-0.40931055
172	0x3e29e5e2	0.165916
173	0xbc382f93	-0.011241811
174	0x3d51dac8	0.051234037
175	0xbbb876a6	-0.0056293784
176	0xbd4fb824	-0.05071272
177	0x3c979d31	0.018507572
178	0x3e64276e	0.22280666
179	0x3cd46f9c	0.025932126
180	0x3c3b4a29	0.011431255
181	0x3ca07c73	0.019590592
182	0x3ccdbb89	0.025113838
183	0x3c83d9f9	0.016095148
184	0xbd756710	-0.05991274
185	0x3ee903fe	0.45510858
186	0x3f087934	0.5330994
187	0xbeac217c	-0.33619297
188	0x3ccd9bbd	0.025098676
189	0x3bf7c7d2	0.0075616622
190	0x3cc65e44	0.024214871
191	0xbeb8d9d5	-0.36103693
192	0xbc274408	-0.010209091
193	0xbbb82214	-0.005619297
194	0x3b9ac109	0.0047227186
195	0xbd339c58	-0.043850273
196	0xbb191387	-0.0023357586
197	0x3c7f13de	0.015568702
198	0xbc984cb6	-0.018591266
199	0xbc3c0bfb	-0.011477466
200	0xbe60a5a1	-0.21938182
201	0x3f1d3301	0.6140595
202	0xbcdcfd83	-0.026976353
203	0x3ea5dafd	0.32393637
204	0x3cf659ae	0.03007206
205	0xbf365f7f	-0.71239465
206	0xbc97bf68	-0.018523887
207	0x3ebc76c2	0.36809355
208	0xbb3b541a	-0.0028584064
209	0xbd0dee0b	-0.034650844
210	0xbf4c729b	-0.79862374
211	0x3ac1cefb	0.0014786416
212	0x3b49f392	0.0030815345
213	0x3f080809	0.5313726
214	0xbc9d520f	-0.019204168
215	0x3c5c87aa	0.013460079
216	0xbe918937	-0.28425
217	0xbe33d3b1	-0.17561223
218	0xbe14219b	-0.14465944
219	0x3f0a94da	0.5413338
220	0xbcf1b598	-0.029505536
221	0xbeff4889	-0.49860027
222	0x3bf0ebe5	0.0073523396
223	0x3dac69d1	0.084186204
224	0x3ba6c2d6	0.005089144
225	0x3f0554ee	0.5208272
226	0xbbfc4e82	-0.0076997885
227	0x3c90f1bc	0.017693393
228	0xbe9bff24	-0.30468094
229	0xbbba668e	-0.005688495
230	0xbf00f758	-0.50377417
231	0xbc277dfe	-0.01022291
232	0x3c24438c	0.01002587
233	0xbc26386c	-0.010145288
234	0x3eb24dd2	0.34824997
235	0xbb4ef6d8	-0.0031580236
236	0xbea95e3a	-0.33079702
237	0xbc18a459	-0.009316527
238	0xbb6d75d4	-0.003623356
239	0x3b14d0b6	0.002270741
240	0xbea3164f	-0.31852958
241	0x3f3bb7c3	0.73327273
242	0xbee3a831	-0.44464257
243	0xbc2a6db5	-0.010402133
244	0xbeea37b6	-0.4574563
245	0xba9bfba7	-0.001190056
246	0x3e010fd4	0.12603694
247	0x3e435de1	0.1907878
248	0xbcb05663	-0.021525567
249	0xbc29d7ea	-0.010366419
250	0x3cc8967a	0.024485815
251	0xbb0742db	-0.0020639214
252	0xbcaaa39c	-0.020829968
253	0xbdcc4889	-0.099747725
254	0x3c1c3039	0.009532982
255	0x3cc9f01f	0.024650631

layer1.attn_r f4 [1, 2, 256]
0	0xbead0fe8	-0.33801198
1	0x3d6e6c44	0.05820872
2	0xbdc8d714	-0.09806648
3	0xbdcaad16	-0.09896295
4	0x3d8cf6d5	0.06883017
5	0xbcd117b0	-0.02552399
6	0x3bc0a5a0	0.005879119
7	0xbcc0d03f	-0.0235368
8	0x3cc04991	0.02347258
9	0xbd6f872c	-0.05847852
10	0xbba570ab	-0.0050488315
11	0xbef9f78c	-0.48821676
12	0xbe8c4e22	-0.2740336
13	0x3e60aeb4	0.21941644
14	0x3b1f9b50	0.0024354048
15	0x3edbe4ef	0.429481
16	0xbd349b76	-0.04409357
17	0xbea05ccb	-0.31320795
18	0x3d07d0e3	0.033158194
19	0xbec06ed8	-0.37584567
20	0x3c820576	0.015871745
21	0xbd3beb7f	-0.045878883
22	0xbef00e7f	-0.4688606
23	0xbd095f40	-0.033538103
24	0xbd688157	-0.056763973
25	0x3f0263a4	0.5093329
26	0xbe0d6e71	-0.13811661
27	0xbccbd469	-0.024881558
28	0xbd0da105	-0.03457739
29	0x3e8195f6	0.25309724
30	0xbedcf5e0	-0.43156338
31	0xbea4f1c0	-0.3221569
32	0x3d847f8b	0.064696394
33	0x3c803ccd	0.015653992
34	0xbdf55570	-0.119791865
35	0xbe20470a	-0.15652099
36	0xbdfac6ff	-0.12244987
37	0x3dd5116e	0.10403715
38	0xbeb3c204	-0.3510896
39	0xbe448348	-0.19190705
40	0xbe1f9f73	-0.15588169
41	0x3d8b4a1d	0.06801245
42	0x3d437667	0.04772034
43	0xbd993c1b	-0.07482167
44	0xbebf4637	-0.37358257
45	0xbd0d7ca8	-0.03454271
46	0xbdb52fa2	-0.08846976
47	0xbec9ec60	-0.39438152
48	0x3d3e9136	0.046525203
49	0x3ec587fc	0.3858031
50	0xbd0813b8	-0.03322193
51	0x3eeddbd1	0.4645677
52	0x3da7fee2	0.08202912
53	0x3c6bd0bc	0.014393028
54	0xbec17a72	-0.3778873
55	0x3d83ba4b	0.06432017
56	0x3e0aedef	0.13567327
57	0xbc1b73b5	-0.009488036
58	0x3eedc724	0.46440995
59	0x3eaebfb1	0.34130624
60	0xbeb9d868	-0.36297917
61	0x3c9fc58b	0.019503376
62	0xbece8f31	-0.4034362
63	0x3e2b2bb1	0.16715886
64	0x3e541cf4	0.2071417
65	0xbba6b747	-0.0050877663
66	0xbc249f66	-0.010047769
67	0x3de77c1a	0.11302967
68	0x3ecd17a6	0.40057105
69	0xbe5abb3c	-0.21360487
70	0x3d3a5f56	0.045501076
71	0xbe74971f	-0.23885773
72	0xbd91ff21	-0.0712874
73	0x3c0f1851	0.008733825
74	0xbcd33b07	-0.025784982
75	0x3ea3371a	0.31877977
76	0x3e125724	0.14291054
77	0xbdac806c	-0.08422932
78	0xbea7798b	-0.32709917
79	0x3ebb0d7f	0.36533734
80	0x3c938dca	0.018011946
81	0xbc8a6e2c	-0.016898237
82	0xbdcfe089	-0.101502486
83	0xbe7a432c	-0.24439687
84	0xbc9c4ea4	-0.019080468
85	0xbe50d4e1	-0.20393707
86	0x3c0cf298	0.008602761
87	0x3e7bd3a8	0.24592459
88	0xbe0a7c7d	-0.13524051
89	0xbd2e0427	-0.04248443
90	0xbdcfd8ac	-0.10148749
91	0x3cbe020c	0.023194335
92	0xba836809	-0.0010025512
93	0x3d1af5c6	0.037832044
94	0x3d795403	0.060871135
95	0x3efbdd64	0.49192345
96	0xbec8ce35	-0.39219823
97	0x3da4f6e1	0.08054901
98	0xbe2a2bfc	-0.16618341
99	0xbe820a2d	-0.25398389
100	0xbd00b261	-0.031420115
101	0xbbd892c5	-0.006609293
102	0x3dcb1b51	0.099173196
103	0xbe29d9aa	-0.16586939
104	0xbe44a1c7	-0.19202338
105	0xbea5e67b	-0.32402405
106	0xbe9cfcf9	-0.30661753
107	0x3d22af8e	0.039718203
108	0xbee57762	-0.44817644
109	0xbe23ff35	-0.16015323
110	0xbe950207	-0.2910311
111	0x3a97bb65	0.0011576234
112	0x3eb8ea28	0.36116147
113	0x3ea4c53c	0.32181728
114	0x3ee0e4e7	0.4392464
115	0xbd6b8550	-0.057500184
116	0x3df9bcb6	0.12194197
117	0xbce9ca2a	-0.028538782
118	0xbd539fb7	-0.051665988
119	0x3d8344bc	0.064095944
120	0x3e55f4bb	0.20894139
121	0x3e424bdd	0.18974252
122	0x3c23659c	0.009972956
123	0xbd4b93da	-0.04970155
124	0x3d5e8c77	0.054333176
125	0x3e4d54ca	0.20051876
126	0xbaaf5bfb	-0.0013378853
127	0xbeafe2fd	-0.34352866
128	0x3dd37075	0.10324184
129	0x3e3dd7dd	0.18539377
130	0x3e97389a	0.2953537
131	0xbcf26076	-0.029587012
132	0x3d29a464	0.04141654
133	0x3cfd795a	0.030941654
134	0x3d5046bc	0.050848708
135	0xbec59a44	-0.38594258
136	0xbe1e9f55	-0.15490468
137	0x3d350b48	0.04420021
138	0x3e9209dd	0.2852315
139	0x3e849092	0.25891548
140	0x3bb817c1	0.005618066
141	0x3eb1b723	0.34710035
142	0xbec80332	-0.39064938
143	0xbedf5634	-0.43620455
144	0xbe8742ab	-0.2641805
145	0xbccfd5a5	-0.025370428
146	0xbe3d541c	-0.18489116
147	0xbc06ddea	-0.008231619
148	0x3c730299	0.014832162
149	0x3d193dca	0.037412442
150	0x3ded0953	0.11574044
151	0x3e0c1d43	0.13683037
152	0x3c8f9d40	0.017531037
153	0x3da88d2e	0.08230053
154	0xbec705ad	-0.38871518
155	0x3c904441	0.017610671
156	0x3d24c78c	0.040229365
157	0xbed6a12d	-0.41919842
158	0x3eadb2bf	0.33925435
159	0xbeea5b8e	-0.45772976
160	0x3a8cfd6d	0.0010756679
161	0x3db7c592	0.089732304
162	0xbc0f9152	-0.008762674
163	0x3cb145ec	0.021639787
164	0xbe9081b2	-0.2822395
165	0xbda524eb	-0.08063682
166	0x3d861787	0.06547456
167	0x3d1404d2	0.03613741
168	0x3e643933	0.22287445
169	0xbef3271d	-0.4749078
170	0x3e29faa4	0.16599518
171	0x3ecac3bd	0.3960246
172	0xbc50e050	-0.012748793
173	0xbc9a8bf5	-0.018865565
174	0xbe1a9619	-0.1509632
175	0xbc42a8b7	-0.011881045
176	0x3e1461de	0.14490458
177	0x3d0f35a8	0.03496328
178	0xbe83a95f	-0.25715157
179	0xbd97ceef	-0.07412516
180	0xbd1bcf8c	-0.03803973
181	0xbd4f7c77	-0.05065581
182	0xbd8fd024	-0.070221215
183	0x3d4312e9	0.047625456
184	0x3e30f815	0.17282136
185	0xbed09714	-0.40740263
186	0xbeb96f5c	-0.36217773
187	0x3ecbcccd	0.39804688
188	0xbda924ba	-0.08258958
189	0xbd247abe	-0.04015612
190	0xbd985581	-0.074381836
191	0x3dadfb7e	0.08495234
192	0x3b715b9c	0.0036828285
193	0x3cd1bf8a	0.025604028
194	0xbbffb66b	-0.0078037283
195	0x3dd58fdb	0.10427829
196	0x3c9740a3	0.018463438
197	0xbb3e6851	-0.0029053877
198	0xbc884600	-0.016634941
199	0x3db78dc0	0.089625835
200	0x3e79a68c	0.24379939
201	0xbeb89b97	-0.36056206
202	0x3bd9b251	0.0066435714
203	0xbec2b42f	-0.38028094
204	0xbdaeb58e	-0.085307226
205	0x3e47be6f	0.19506238
206	0x3d4d1b62	0.050074942
207	0xbebbce5e	-0.36680883
208	0x3d5006be	0.05078768
209	0x3dc3b4bc	0.09555957
210	0x3db1e422	0.08686091
211	0x3ada2844	0.001664408
212	0xbd2881b9	-0.04113934
213	0xbe415f22	-0.18883947
214	0x3d31075c	0.04321991
215	0xbc7f60eb	-0.015587072
216	0x3e8b7063	0.27234182
217	0x3ed42ee4	0.41442025
218	0x3eb6beaa	0.3569234
219	0xbe1a51f2	-0.15070322
220	0x3d9b931e	0.0759642
221	0x3ef5a1df	0.4797506
222	0xbd41c174	-0.047303632
223	0xbd2597e1	-0.040428046
224	0xbc32f3fa	-0.010922426
225	0xbec01f4c	-0.37523878
226	0xbd36d636	-0.04463788
227	0xbd50033e	-0.050784342
228	0x3dfd8ae0	0.12380004
229	0xbca47b43	-0.020078307
230	0x3eab147a	0.3341406
231	0xbc7f52e9	-0.015583732
232	0x3c20fa90	0.009825364
233	0x3cf6400a	0.030059833
234	0xbed0e439	-0.4079912
235	0xbd145e90	-0.036222994
236	0x3f0bca95	0.5460599
237	0xbc0e5f24	-0.0086896755
238	0xbc38f1a7	-0.011288083
239	0xbd157b38	-0.036494464
240	0x3e282555	0.16420491
241	0xbe8e1fde	-0.27758688
242	0x3ec2ef05	0.38072982
243	0x3b75cdd2	0.0037506712
244	0x3e13d6bf	0.14437388
245	0xbc385c16	-0.011252424
246	0xbd7473c5	-0.05968072
247	0xbe64becc	-0.22338408
248	0x3d9305e0	0.07178855
249	0x3d539d3d	0.051663626
250	0xbd9c8560	-0.07642627
251	0x3ac282b4	0.0014839978
252	0xbd1458ac	-0.036217377
253	0x3e8daf0d	0.27672616
254	0xbc8d0475	-0.01721404
255	0xbc2e05a2	-0.01062146

layer1.bias f4 [512]
0	0xbd288a18	-0.04114732
1	0x3c1a9c80	0.009436727
2	0xbddc8923	-0.10768344
3	0xbc14d09f	-0.009082942
4	0x3c0239ae	0.007948322
5	0xbc034467	-0.008011914
6	0x37c69c95	2.3676354e-05
7	0xbaace869	-0.0013191822
8	0x3a9d493e	0.0011999977
9	0xbe15a923	-0.14615302
10	0xb9161954	-0.0001431455
11	0xbd611b54	-0.054957703
12	0xbd4f7837	-0.050651755
13	0x3ac7f7a4	0.0015256298
14	0xb928e3c4	-0.00016106578
15	0x3d080d29	0.033215676
16	0xbc138e5e	-0.009006111
17	0x3d0a252d	0.03372686
18	0x3b7fd02a	0.0039033988
19	0xbcb50e32	-0.022101495
20	0x3abdb9a2	0.0014474879
21	0xbc48fca8	-0.012267269
22	0xbd38f482	-0.045155056
23	0xbb9aa85c	-0.004719777
24	0xbd4af938	-0.04955408
25	0x3bd9afe3	0.006643282
26	0xbcf7b79a	-0.030238915
27	0xb9e830ea	-0.00044286932
28	0xbb3e5a43	-0.00290455
29	0x3c11becd	0.008895588
30	0xbbdfaba7	-0.0068258825
31	0xbb078aff	-0.0020682213
32	0x3c1787c8	0.009248681
33	0x39adc909	0.00033146914
34	0xbc17729d	-0.0092436345
35	0xbd12136f	-0.035663065
36	0xbd1dcb0c	-0.03852372
37	0x3c0ded7c	0.008662578
38	0xbd54fad9	-0.05199704
39	0xbd809083	-0.062775634
40	0xbd206149	-0.03915528
41	0x399504f3	0.00028423182
42	0x3b7db875	0.0038714681
43	0xbd62e87c	-0.055397496
44	0xbadc6136	-0.0016813639
45	0xbb1a009e	-0.0023498903
46	0xbc1ab90a	-0.009443531
47	0x3da408ac	0.080094665
48	0x3c1d6911	0.009607569
49	0xbde0fc66	-0.10985641
50	0xbb755f38	-0.0037440788
51	0xbd444e65	-0.047926325
52	0x3c077ac5	0.008269017
53	0x3b348cef	0.0027549823
54	0x3d969bb3	0.07353916
55	0x3c214e04	0.0098452605
56	0x3cc87b1c	0.024472766
57	0xbac7cd70	-0.001524372
58	0xbdb18add	-0.08669064
59	0x3b81c899	0.0039606807
60	0xbceca7e2	-0.028888647
61	0x3b0372bb	0.0020057398
62	0x3e05c3b6	0.13062939
63	0x3cd960c3	0.026535397
64	0x3c1c462c	0.009538215
65	0x394e71fe	0.00019688156
66	0xb9eca2a9	-0.0004513462
67	0xbd07f9ad	-0.033197094
68	0x3bd410e1	0.0064717387
69	0xbda55057	-0.08071964
70	0x3b241af6	0.0025040484
71	0xbd14fa33	-0.03637142
72	0xbc165030	-0.009174392
73	0x3aa9b6d4	0.0012948164
74	0xbb615ecd	-0.003438878
75	0x3be32355	0.006931702
76	0x3c13e03f	0.009025632
77	0xbcfe13f9	-0.031015383
78	0x3d977852	0.07395996
79	0x3c539d92	0.012915986
80	0x398b6a60	0.00026591402
81	0xbb1aa4a9	-0.002359668
82	0xbc280930	-0.010256097
83	0xbd51ce12	-0.051221915
84	0xba9bf1f6	-0.0011897672
85	0xbacdd69d	-0.0015704219
86	0xb995f211	-0.00028599848
87	0x3c13b279	0.009014719
88	0x3d20ba21	0.039240006
89	0xbc056f6c	-0.008144241
90	0xbc138946	-0.0090048965
91	0x3b4ea2ca	0.0031530135
92	0xb8632082	-5.4151293e-05
93	0x3b926ecd	0.004468775
94	0x3bde9cf3	0.006793612
95	0xbdb2ff44	-0.08740094
96	0xbcedf47c	-0.029047243
97	0x3c08e7da	0.008356059
98	0xbd038093	-0.03210504
99	0xbc6277e7	-0.013822532
100	0xbae1cc27	-0.001722698
101	0xbac49fb5	-0.001500121
102	0xbc1c78df	-0.009550302
103	0xbcffe22b	-0.031235775
104	0xbbc080ef	-0.005874745
105	0xbbb0b6cb	-0.0053928844
106	0xbb94724c	-0.004530227
107	0x3b3b9e5d	0.0028628327
108	0x3b701500	0.003663361
109	0xbc208329	-0.009796896
110	0xbb777695	-0.003775989
111	0xbd647015	-0.055770952
112	0xbcbb87ec	-0.022891961
113	0x3ce897a4	0.02839262
114	0xbc9db721	-0.019252362
115	0xbb8becdf	-0.0042701806
116	0xba1b7db8	-0.00059315143
117	0xbb8a6b53	-0.00422422
118	0xbc306a1f	-0.010767489
119	0x3c1dbb17	0.009627125
120	0x3c137696	0.009000441
121	0x3c139446	0.009007519
122	0x39a22082	0.00030923268
123	0xbbfd8521	-0.0077368175
124	0x3b7b2c1f	0.0038325859
125	0x3ae156ae	0.001719197
126	0xb97a2a5b	-0.00023857637
127	0x38cfba74	9.905259e-05
128	0x3ac85b82	0.001528606
129	0x3c1388b5	0.009004761
130	0x3d040888	0.0322347
131	0xbb884764	-0.004158901
132	0x3b4d00f2	0.003128108
133	0x3b2404bd	0.0025027238
134	0x3b92515d	0.0044652657
135	0x3da5319f	0.08066105
136	0xbc1dfa58	-0.009642206
137	0x3b5e417a	0.0033913539
138	0x3b278d29	0.0025566316
139	0x3c177ee8	0.009246565
140	0x3ad5141e	0.0016256606
141	0x3c70cd91	0.014697448
142	0xbb15b882	-0.002284557
143	0xbc27f5cd	-0.010251475
144	0xbd090bf6	-0.033458672
145	0xbb45193d	-0.0030074858
146	0xbc2848a9	-0.01027123
147	0xbabb4f12	-0.0014290533
148	0x3a20a8cf	0.000612867
149	0x3c2c308b	0.01050962
150	0x3d189aec	0.03725712
151	0x3a60bfe2	0.00085735146
152	0x3ae3c20d	0.0017376557
153	0xbcce3575	-0.025171975
154	0x3d59f73e	0.053214304
155	0x3b14f5b8	0.0022729468
156	0x3b6a4e27	0.0035752149
157	0xbb97d895	-0.004633973
158	0xbe02dcce	-0.12779543
159	0xbd369718	-0.044577688
160	0x3d562c3b	0.052288275
161	0xb8e131b8	-0.00010738097
162	0xb8c7456a	-9.501989e-05
163	0x3b0990f5	0.0020990942
164	0xba82194f	-0.0009925755
165	0xbdc8ca63	-0.09804227
166	0x3c1cd1d1	0.0095715085
167	0x3b90f656	0.004423897
168	0x3ac5462e	0.0015050822
169	0xbae599ee	-0.0017517188
170	0x3c1379fb	0.00900125
171	0xbce12109	-0.027481573
172	0xbdb84300	-0.08997154
173	0xb869547b	-5.5630207e-05
174	0xbc037d6b	-0.008025507
175	0xba52547f	-0.0008023455
176	0x3bfc8e01	0.007707358
177	0x3b938997	0.004502486
178	0xbd24650a	-0.04013542
179	0xbc16b79d	-0.00919905
180	0xbb0f7261	-0.0021888244
181	0xbc2f34b6	-0.01069372
182	0xbb6e2fd0	-0.0036344416
183	0x3b9e7186	0.0048353104
184	0x3c18e1b3	0.009331155
185	0xbd87fc3e	-0.06639908
186	0x3e0d4e85	0.13799484
187	0x387eb3a1	6.072561e-05
188	0xbc1f0811	-0.009706513
189	0xbbe9ddd2	-0.0071370387
190	0xbc1cff50	-0.009582356
191	0xbb968913	-0.0045939772
192	0xb896b020	-7.185363e-05
193	0x3ac07766	0.0014684021
194	0x3948e680	0.00019159354
195	0x3c0f1b34	0.008734513
196	0x39bf7efe	0.00036524975
197	0x38f2db48	0.000115803035
198	0xbb0ceac8	-0.0021502245
199	0x3c076eaa	0.00826613
200	0x3c904e8e	0.017615583
201	0xbd8e8c31	-0.06960333
202	0xb9eb1af0	-0.00044842763
203	0x3d06d951	0.032922093
204	0xbc15ea17	-0.00915005
205	0x3cf692e9	0.03009935
206	0x3c1705fd	0.009217736
207	0x3c288557	0.010285697
208	0x3c014898	0.007890843
209	0x3c07ad34	0.008281041
210	0x3d8d8019	0.06909198
211	0x3939babe	0.00017712542
212	0xbbb5a39d	-0.005543186
213	0xbd083b98	-0.033259958
214	0x3c19660e	0.009362711
215	0xb9b4d26b	-0.0003448905
216	0x3b009056	0.001961728
217	0x3bfb2aba	0.0076650055
218	0x3b4cee5b	0.003127
219	0xbba0452c	-0.0048910584
220	0x3c017219	0.007900738
221	0xbd76dffb	-0.0602722
222	0xbc04c72d	-0.008104128
223	0xbde37b7b	-0.111075364
224	0xba4e5d6c	-0.00078721973
225	0x3bd83165	0.006597685
226	0xbc01402c	-0.007888835
227	0xbc2c9dcf	-0.010535671
228	0x3c4ef2f8	0.01263117
229	0xbb1743c3	-0.002308116
230	0x3c82ba38	0.015957937
231	0xbb1bacfd	-0.0023754232
232	0x3a4c3b21	0.00077907933
233	0x3ab4a141	0.0013780968
234	0xbbff772b	-0.0077961884
235	0xbb7adce5	-0.0038278636
236	0x3bb7192b	0.005587717
237	0xbacc9c6a	-0.001561058
238	0xbae1af6c	-0.0017218417
239	0xbb408ffa	-0.0029382692
240	0x3d0e0ea6	0.03468194
241	0x3dee6948	0.116411746
242	0xbc98d811	-0.018657716
243	0xb7e8e26c	-2.7761991e-05
244	0x3a233fd7	0.00062274694
245	0xb9ac13f2	-0.00032821257
246	0xbd921589	-0.07133014
247	0xbd7b4e9e	-0.061354272
248	0x3b8960a7	0.00419243
249	0x3bfbbf29	0.0076827
250	0xbc1e43cd	-0.00965972
251	0xb9c87283	-0.0003823229
252	0xbb9c68df	-0.004773244
253	0x3be0d0c3	0.006860824
254	0xb9bf433c	-0.00036480452
255	0x39899d24	0.00026247755

layer1.fc.weight f4 [512, 2]
0	0xbd3bac92	-0.045818873
1	0xbd1b716d	-0.037949968
2	0xb92ee040	-0.00016677473
3	0x3be779ca	0.007064079
4	0x3d708608	0.058721572
5	0xbe0a7c47	-0.1352397
6	0x3a2b6277	0.0006537805
7	0xbb80697e	-0.0039188256
8	0xba22fce8	-0.00062174955
9	0x3b352a54	0.0027643638
10	0xba8d3e77	-0.0010776062
11	0xba8a67e2	-0.0010559524
12	0xb926dfe3	-0.00015914398
13	0xb6475834	-2.9704652e-06
14	0x3a76a42e	0.000940862
15	0xb985d4f1	-0.0002552639
16	0x392291b2	0.000155038
17	0xb9e4190b	-0.00043506207
18	0xbe8d97f7	-0.27655002
19	0x3dd4afe0	0.10385108
20	0xb8d0c3e4	-9.9547e-05
21	0x3759faf8	1.2992641e-05
22	0xbd08c197	-0.033387747
23	0xbda70ddd	-0.08156941
24	0xbe1f7956	-0.1557363
25	0x3ca04476	0.019563895
26	0xbaece1fd	-0.0018072721
27	0x3ab272d4	0.0013614544
28	0x39edc082	0.00045347592
29	0xb9e40345	-0.00043489985
30	0x3befff4f	0.0073241363
31	0x3d80b2cc	0.06284103
32	0x3a55e7cc	0.00081598456
33	0xbba80125	-0.0051270896
34	0xbcd4d2c6	-0.02597941
35	0xbd9ce3cc	-0.07660636
36	0xbaea9d1a	-0.0017899603
37	0x3a6c962c	0.0009025063
38	0x3c4819bd	0.012213168
39	0xbd1760e1	-0.036957625
40	0xba8aa1a6	-0.001057674
41	0x3a071406	0.0005152825
42	0xbb2044f0	-0.0024455152
43	0xbbb43db8	-0.0055005215
44	0xbd6fd5d4	-0.05855353
45	0xbd5656bb	-0.052328806
46	0x3b03b1a7	0.0020094903
47	0xba8ec151	-0.0010891353
48	0xbde91dc8	-0.113826334
49	0x3c010f48	0.0078771785
50	0x3c65818f	0.01400794
51	0x3d810e9e	0.06301616
52	0x3d379de8	0.044828326
53	0xbdb3676d	-0.08759961
54	0x38d9a246	0.00010377592
55	0xb994a6d5	-0.0002835306
56	0x3ac065f0	0.0014678817
57	0xba2e1f7e	-0.0006642266
58	0xba46ed60	-0.0007588472
59	0x3b9bc68e	0.004753894
60	0x3b6fd231	0.003659379
61	0xbb88a4ec	-0.004170051
62	0x3b0ab984	0.0021167705
63	0xbad5e5cf	-0.0016319099
64	0xbaa96f08	-0.0012926767
65	0x3ba1e82e	0.004941008
66	0xb867aca0	-5.523546e-05
67	0xb9b4ae56	-0.00034462166
68	0x3a095b99	0.00052397844
69	0xbb89d864	-0.004206704
70	0x3cfe0709	0.031009214
71	0xbdad3237	-0.08456843
72	0xbdab6d3d	-0.08370445
73	0xbc667bf2	-0.014067637
74	0xb9ebd502	-0.00044981396
75	0x3b817bbf	0.0039515193
76	0x3b833188	0.0040037073
77	0xbdb726b8	-0.08942932
78	0x3c1eff45	0.009704416
79	0xbdc20ad0	-0.094747186
80	0xbe01baf7	-0.12668978
81	0xbc6b257e	-0.014352201
82	0xbaea739a	-0.0017887235
83	0x3a60136b	0.00085478154
84	0xbacf3ce4	-0.0015810994
85	0x3a9af2dc	0.0011821645
86	0xbe0cf593	-0.13765554
87	0x3d470104	0.048584953
88	0xbcb976b5	-0.022639612
89	0xbdbf7802	-0.093490615
90	0x38f3743c	0.00011608793
91	0x398a9d9e	0.00026438845
92	0x3a745d39	0.00093217526
93	0xbb93b4fd	-0.0045076595
94	0xbcfb8f2c	-0.030707918
95	0xbdec541c	-0.1153948
96	0xbad45594	-0.0016199821
97	0x3bd5c7c4	0.006524058
98	0x3d34ea39	0.044168685
99	0x3dc40943	0.09572079
100	0x3ac28b15	0.0014842475
101	0xba272e42	-0.00063774374
102	0x3d657c88	0.056026965
103	0x3c212a5d	0.00983676
104	0xba2706e4	-0.0006371571
105	0x3b6248a5	0.0034528163
106	0xbacba04c	-0.0015535443
107	0x3a296f00	0.00064633787
108	0xbccd570b	-0.02506592
109	0xbdcba7cb	-0.09944113
110	0x3d5feb34	0.054667667
111	0xbd61e3d8	-0.05514893
112	0x3de10990	0.10988152
113	0xbc54a0ee	-0.012977822
114	0x3a2023de	0.000610886
115	0xb9825ba2	-0.00024863804
116	0x3d1cc6c8	0.03827551
117	0x3db52d8f	0.0884658
118	0xbb0c824a	-0.0021439963
119	0x3b1565e5	0.002279633
120	0xbd8452c8	-0.06461102
121	0x3b8b1bca	0.004245256
122	0xba7a8072	-0.0009555883
123	0x39e454b6	0.00043550663
124	0xbd19d92e	-0.037560634
125	0xbe038a9b	-0.12845843
126	0x3dde96a0	0.10868573
127	0xbd0312f8	-0.032000512
128	0xb90f52a4	-0.00013668329
129	0x3ba7bbb1	0.00511881
130	0x3947b32e	0.00019044869
131	0xb940a4e8	-0.00018371979
132	0xb7bbae28	-2.2373235e-05
133	0xb8afb7f6	-8.378916e-05
134	0x3d54ec3b	0.0519831
135	0x3c13e84d	0.009027553
136	0xbb10fb78	-0.0022122543
137	0x3b615eec	0.0034388853
138	0xbe3c9525	-0.18416269
139	0x3d83f3e4	0.06443003
140	0xba8e63b4	-0.0010863454
141	0x3a4457b9	0.00074898783
142	0xbda4501b	-0.080230914
143	0xbaef58bf	-0.0018260701
144	0x3a89fc37	0.0010527436
145	0xbb86ec29	-0.004117508
146	0xba8317e1	-0.0010001623
147	0x3a04fc32	0.00050729804
148	0x3ad5271f	0.0016262269
149	0xba34e307	-0.0006900285
150	0xbb0d1979	-0.0021530075
151	0x3b79b95b	0.0038104865
152	0xb8bbc0fb	-8.9528e-05
153	0x3ba6c608	0.005089525
154	0x3d29170c	0.041281745
155	0xbdb15e91	-0.08660615
156	0xbbf3c3c0	-0.0074391067
157	0xbdf1d178	-0.11807531
158	0x3d45f5ae	0.04833
159	0x3d41979c	0.047263727
160	0x3a532249	0.000805412
161	0xba056673	-0.00050888135
162	0x3a7dc7e0	0.0009680968
163	0xb9d0dbb4	-0.00039836543
164	0x388bc6a9	6.66504e-05
165	0xbbb76e35	-0.0055978545
166	0xbe143efb	-0.1447715
167	0x3c9d1200	0.019173622
168	0x3989e6b3	0.0002630256
169	0xb8d65379	-0.00010219863
170	0x3b6b66b1	0.0035919363
171	0xbb073425	-0.0020630446
172	0x3a0ee1e4	0.00054505304
173	0xba123216	-0.00055769214
174	0xba56abe7	-0.00081890676
175	0x3b9f3c85	0.0048595094
176	0x3ddd6f84	0.108122855
177	0xbe31ce2a	-0.17363802
178	0x3ab36fba	0.0013689913
179	0xbb829f1b	-0.003986252
180	0x3a19ece8	0.00058717886
181	0xbb7a3fd8	-0.0038185026
182	0xbad42525	-0.0016185386
183	0x3a4a0628	0.0007706606
184	0x386d982b	5.664692e-05
185	0xb8914a13	-6.927936e-05
186	0xbb0536d9	-0.0020326881
187	0x3aac36e6	0.001313892
188	0x39cbfe48	0.00038908632
189	0x38be40ae	9.0719535e-05
190	0x3d0a5be6	0.033779047
191	0x3db6e9f7	0.08931344
192	0xbc7071a3	-0.014675531
193	0xbdd2d2b0	-0.10294092
194	0xba363217	-0.0006950213
195	0x3b6a2f7e	0.0035733874
196	0xbe005107	-0.1253091
197	0xbba3affc	-0.004995344
198	0x3d175a35	0.036951263
199	0xbd980c9b	-0.07424279
200	0x3a9c274d	0.0011913568
201	0xba0f29cf	-0.0005461247
202	0x39298cdd	0.00016169572
203	0xb9a359a7	-0.0003115658
204	0x3d6a0f40	0.05714345
205	0x3a1fceb0	0.00060961675
206	0x3cc6ed73	0.024283146
207	0xbd8db4ff	-0.06919288
208	0x3b2310f2	0.0024881926
209	0xbb4a03c0	-0.003082499
210	0xbdb92ddb	-0.09041949
211	0xbd807cbf	-0.062737934
212	0xbd91a6b8	-0.07111877
213	0xbd927a34	-0.07152215
214	0xba9ac10b	-0.0011806799
215	0x3a4173e7	0.00073796365
216	0xbd591f4c	-0.053008363
217	0xbd858f9a	-0.065215304
218	0x39b4a930	0.0003445833
219	0xbb9ddcdd	-0.0048175887
220	0x3b0d8cb2	0.0021598754
221	0xbb1362af	-0.002248924
222	0xbe1e4f52	-0.15459946
223	0x3cf83df7	0.030302985
224	0x3d6bc55c	0.057561263
225	0x3d7f21af	0.062287983
226	0xbc481eb5	-0.012214352
227	0x3d9e5146	0.077303454
228	0x3ba1e5c4	0.0049407203
229	0x3db8c928	0.090227425
230	0x3ae86b3a	0.0017732151
231	0xbaa2f920	-0.0012433864
232	0xbcaac149	-0.020844119
233	0x3caf838d	0.021425033
234	0x3a8f3d90	0.0010928381
235	0xbaae2d66	-0.0013288676
236	0x3a9bec11	0.0011895915
237	0xbbd31092	-0.0064411843
238	0xbab1ef8a	-0.0013575417
239	0x3bba6d55	0.005689303
240	0xb9da6a13	-0.00041659232
241	0x3ba37051	0.0049877544
242	0xb991324d	-0.00027694032
243	0x3ba60755	0.005066792
244	0xb900e905	-0.00012293838
245	0xb89acb1a	-7.381123e-05
246	0x3a715404	0.000920594
247	0xbb7e6e8e	-0.003882322
248	0xbb040236	-0.002014292
249	0x3aa95f34	0.001292205
250	0xbae2ef99	-0.0017313837
251	0x3ab37a67	0.0013693095
252	0x395ae4b1	0.00020875294
253	0xb94896ec	-0.00019129709
254	0x3c385799	0.011251354
255	0xbd9cf54d	-0.07663975

layer2.attn_l f4 [1, 1, 2]
0	0x3f8484c3	1.0353016
1	0x3ff388ed	1.9026161

layer2.attn_r f4 [1, 1, 2]
0	0xbee6f416	-0.45108098
1	0xc038fb37	-2.890333

layer2.bias f4 [2]
0	0xbc75e76f	-0.015008791
1	0x3e55175b	0.2080969

layer2.fc.weight f4 [2, 512]
0	0xbd2083d7	-0.039188232
1	0x3b570a30	0.0032812469
2	0x3ccea4ed	0.025225127
3	0xba71b2fa	-0.000922009
4	0x3938e783	0.00017633852
5	0x3a9bcf19	0.0011887281
6	0x375c3abb	1.3126696e-05
7	0xb8ab3353	-8.163475e-05
8	0x379408d2	1.7647082e-05
9	0xbe555cac	-0.20836133
10	0xb90363f6	-0.00012530372
11	0xbd109218	-0.035295576
12	0xbe45b94b	-0.19308965
13	0xb8f7f402	-0.00011823328
14	0x3898bfb1	7.28363e-05
15	0x3c37339f	0.011181741
16	0xbb4a18a7	-0.0030837448
17	0xbd42210b	-0.047394793
18	0x3a147a6a	0.0005663993
19	0x3b42ea4c	0.0029741703
20	0x3958d0ba	0.00020677122
21	0xbb5c854b	-0.0033648785
22	0xbd6c6adc	-0.057719097
23	0xba486d4e	-0.0007645682
24	0xbddf1671	-0.10892952
25	0x3c828b10	0.01593545
26	0x3c7e9880	0.0155392885
27	0xb8e70751	-0.00011016301
28	0xb9b36446	-0.0003421625
29	0x3aa08a51	0.0012248253
30	0xb9c132be	-0.00036849634
31	0x393cf1a8	0.00018019101
32	0x3ae65782	0.0017573687
33	0xb9333fc2	-0.00017094522
34	0xba94a53f	-0.0011340751
35	0x3c2cf6a0	0.010556847
36	0xbd9f4271	-0.077763446
37	0x3a89c643	0.0010511357
38	0xbbde5785	-0.0067853355
39	0xbab341bd	-0.0013676208
40	0xbe185210	-0.14875054
41	0xb98c7283	-0.000267882
42	0x3a3c7fba	0.00071906636
43	0xbdfb1c31	-0.122612365
44	0xbd2565f9	-0.04038045
45	0xb9ba4a20	-0.00035531912
46	0xba9b2895	-0.0011837656
47	0xbd1d1bcd	-0.03835659
48	0x3b65d104	0.003506721
49	0x3da133de	0.07871221
50	0xb9ecc7da	-0.0004516233
51	0x3d6390d5	0.055558044
52	0x3a267050	0.00063491333
53	0x39e63e62	0.00043915497
54	0xbd4f961d	-0.05068027
55	0x3c5d7c6c	0.013518434
56	0x3deafea5	0.11474351
57	0xb9271350	-0.00015933556
58	0x3d50be33	0.050962638
59	0x39aa38e3	0.0003246731
60	0xbd3c8463	-0.04602469
61	0x39966708	0.00028686994
62	0xbd961798	-0.07328719
63	0x3dce36b6	0.10069029
64	0x3ada09dc	0.0016635018
65	0xb8a45bc6	-7.8372235e-05
66	0xb98a7ecd	-0.00026415885
67	0x3cd8fb88	0.026487127
68	0x3a16029e	0.0005722436
69	0xbe0318dd	-0.12802453
70	0x39d5893a	0.00040728768
71	0xbd827ca7	-0.06371432
72	0xba7c2b7a	-0.00096195156
73	0x397baec8	0.00024002336
74	0xb9f67ca2	-0.00047013635
75	0x3a5f23a6	0.0008512087
76	0x3ad1b59d	0.001599956
77	0x3c66b3ca	0.014080951
78	0xbd18b175	-0.03727861
79	0x3d2c46c8	0.04205969
80	0x39787a68	0.00023696723
81	0xb9b5c4bc	-0.0003466959
82	0xbb034d9c	-0.0020035272
83	0xbe101349	-0.14069857
84	0xb98a1a6a	-0.0002634109
85	0x3a1e6f8e	0.00060438446
86	0xb9803be2	-0.0002445868
87	0x3aab8a3c	0.0013087462
88	0xbb7f1c2d	-0.0038926706
89	0xbb269b9e	-0.0025422345
90	0xba6bd015	-0.0008995545
91	0x39f3172c	0.00046365836
92	0xb787c45a	-1.6184687e-05
93	0x3a4b0982	0.0007745252
94	0xbae0a807	-0.001713992
95	0x3d80dd7c	0.06292245
96	0xbc98b3fd	-0.018640513
97	0x3a36e413	0.0006976735
98	0xbe26876a	-0.16262594
99	0x3c21240e	0.009835256
100	0xb90407b6	-0.00012591374
101	0xb95d3497	-0.00021095794
102	0x3b97b522	0.004629747
103	0x3bdbb0b0	0.0067044124
104	0xba7f61b4	-0.0009742037
105	0xbe149afa	-0.14512244
106	0xbdb204e5	-0.0869234
107	0x39f75c41	0.00047180246
108	0xbd8d6f62	-0.0690601
109	0xbacde648	-0.0015708888
110	0xb9b76911	-0.0003498276
111	0xbe3f5277	-0.18683802
112	0x3db75e27	0.08953505
113	0x3a3f6d8b	0.0007302395
114	0x3cc33a35	0.023831466
115	0xba2ed062	-0.00066686247
116	0xbb46d7a4	-0.0030340934
117	0xba32a234	-0.0006814331
118	0xbb620e40	-0.0034493357
119	0x3b1773dc	0.002310983
120	0x3ac14e2c	0.0014748028
121	0x3acf1e71	0.0015801919
122	0x38820e19	6.201509e-05
123	0xbb2b8178	-0.0026169699
124	0x3a156e17	0.00057003036
125	0xb74f5484	-1.2357839e-05
126	0xb8c33767	-9.308644e-05
127	0xbbf911d9	-0.0076010046
128	0xbb458f3e	-0.0030145193
129	0x3ad1cf4e	0.0016007216
130	0xbc0ca1db	-0.008583511
131	0xba40ddd8	-0.0007357276
132	0x3a143086	0.00056529825
133	0x3962c5b7	0.00021626694
134	0x3a4aac30	0.00077313464
135	0xbd95100d	-0.07278452
136	0xbadba749	-0.0016758229
137	0x39e6ef98	0.0004404753
138	0x38a96530	8.0773956e-05
139	0x3ab82b60	0.0014051013
140	0x391aa020	0.00014746236
141	0xbb747aee	-0.0037304717
142	0xbde952f3	-0.113927744
143	0xbd1964af	-0.037449535
144	0xbd6a5c94	-0.057217196
145	0xb9f6143c	-0.00046935852
146	0xbae42e31	-0.0017408786
147	0xb98bf203	-0.0002669246
148	0x377beee4	1.5016387e-05
149	0x3b4c01c6	0.0031128987
150	0x3df0f8ad	0.11766181
151	0xbb15819b	-0.0022812847
152	0x39a72a0e	0.00031884055
153	0xbc88c75d	-0.016696626
154	0xbd5e30fa	-0.054245926
155	0x39aa36bc	0.00032465707
156	0x39cb7a1a	0.0003881015
157	0x392072c0	0.00015301537
158	0x3dcfedf2	0.10152806
159	0xbc0f5d5e	-0.008750288
160	0x3e029004	0.1275025
161	0xbb918965	-0.0044414275
162	0xb75bb324	-1.3095127e-05
163	0x396339f3	0.00021669995
164	0x3a5bb692	0.0008381392
165	0x3ca215b3	0.019785738
166	0x3b0846ba	0.002079411
167	0x3a36c94e	0.0006972746
168	0xb90b293e	-0.00013271437
169	0xbd6b9174	-0.05751176
170	0x3ad9e678	0.0016624471
171	0x3d202ca4	0.039105073
172	0xbe6c8434	-0.23097306
173	0xb8a8fe1f	-8.058198e-05
174	0xbae0bd88	-0.0017146328
175	0xb93ace07	-0.00017815093
176	0x3af4e500	0.001868397
177	0x3a3e2a96	0.00072542706
178	0xbe59e554	-0.21278888
179	0xba807f37	-0.0009803538
180	0xb94a925e	-0.00019318747
181	0xbb58dfab	-0.00330923
182	0xb9c06ddc	-0.00036702945
183	0x3a67ba70	0.0008839732
184	0x3b01e765	0.001982176
185	0xbc174a08	-0.009233959
186	0xbe24c5a5	-0.1609102
187	0x3e33c44c	0.1755535
188	0xbab75a96	-0.0013988789
189	0xbad7b8f3	-0.0016458317
190	0xbaae2c0a	-0.0013288271
191	0xbc375d62	-0.011191698
192	0xb6846ac2	-3.946335e-06
193	0x3929fd13	0.00016211373
194	0xb78c82dc	-1.6750237e-05
195	0x3a92f638	0.0011212295
196	0x39617002	0.00021499398
197	0x389733a1	7.209858e-05
198	0xb9c23ad2	-0.00037046388
199	0x3aca6837	0.0015442435
200	0x3cfe2133	0.03102169
201	0xba7228d5	-0.0009237652
202	0xb90c80b1	-0.00013399382
203	0xbd063dcf	-0.03277379
204	0xba718579	-0.00092133094
205	0xbc33dc1a	-0.010977769
206	0x3b803fe3	0.003913866
207	0xbe083e99	-0.13305129
208	0x3b70d4d4	0.003674795
209	0x3a40ef4a	0.00073598756
210	0xbcb1bb11	-0.021695646
211	0x380293de	3.1132127e-05
212	0xbaa74cda	-0.0012763992
213	0x3c6c5e63	0.0144268
214	0x3b7d0293	0.003860627
215	0xb870cc14	-5.741052e-05
216	0x3d014293	0.03155763
217	0x3a3c366b	0.000717974
218	0x3885678c	6.361221e-05
219	0x3c65bd9c	0.014022257
220	0x39951cf2	0.0002844106
221	0x3d6ee7d8	0.058326572
222	0xbb412784	-0.0029473016
223	0xbe3a47b8	-0.18191421
224	0xb844cb9b	-4.6919664e-05
225	0x3b377221	0.002799161
226	0xbad2de61	-0.0016088003
227	0xbb68b43d	-0.003550782
228	0x3cc3bdd7	0.023894234
229	0xb9b3c8c0	-0.0003429111
230	0x3b301d69	0.0026872999
231	0xb9d9c31b	-0.0004153483
232	0x391b1514	0.00014789804
233	0x393a7b1f	0.00017784208
234	0xbde713d5	-0.112830795
235	0xba003477	-0.00048906304
236	0x3d1c3244	0.038133875
237	0xb93d24d5	-0.00018038166
238	0xb98c5b02	-0.00026770687
239	0xb9ba53fa	-0.00035539252
240	0x3df1f21c	0.11813757
241	0xbd4309a6	-0.047616623
242	0x3d19a6f7	0.037512746
243	0xb5f229e8	-1.8042601e-06
244	0xbb220436	-0.0024721748
245	0xb94af30a	-0.0001935476
246	0xbe2fdb2a	-0.17173448
247	0xbe1b7e8e	-0.15184996
248	0x3a1a1038	0.00058770506
249	0x3b7346bc	0.0037121018
250	0xbabaa1b5	-0.0014238866
251	0x3873e22a	5.8146346e-05
252	0xba5731bf	-0.0008209012
253	0x3a807d84	0.0009803032
254	0xb88d40ca	-6.735472e-05
255	0x38c9d3e0	9.623892e-05
