Residual_Graph.pt (torch, 17039 bytes, 8 tensors)

layer1.attn_l f4 [1, 2, 256]
000000 b2 9d b3 be d9 d0 a2 bc 78 84 08 bf 9f 81 db bd
       -0.3508125 -0.019874977 -0.5332713 -0.10718083
000010 8d 40 c9 be 21 c5 1e 3e 53 1f 8c be 08 50 d6 3d
       -0.3930706 0.15504886 -0.27367648 0.104644835
000020 a6 1a 58 3e f2 fe 09 be 92 85 b8 3d f8 d4 1f 3d
       0.21103916 -0.1347616 0.090098515 0.039021462
000030 62 fa bb 3d e3 08 6d bd 96 c5 f4 3e 45 5e 82 bd
       0.09178616 -0.057869803 0.47806996 -0.06365637
000040 88 2c d8 be 1b e5 af 3d fc ca 80 3d e1 ad c9 3c
       -0.42221475 0.0858862 0.06288716 0.024619045
000050 aa 51 b2 bd fb e8 d2 be 37 b2 01 3e 00 3c c0 bd
       -0.087069824 -0.41193375 0.1266564 -0.09386444
000060 c8 33 9e bd 39 27 c5 be 31 7c 87 3e 85 71 d6 bd
       -0.0772472 -0.38506487 0.26461938 -0.10470871
000070 40 5e 18 3e 13 bc 00 bd 0c 70 08 be d8 c8 64 3a
       0.14879704 -0.03142936 -0.13323992 0.0008727438
000080 d2 f1 4b be 2a 23 b0 be ed c9 03 3e 33 b2 7f bd
       -0.19916466 -0.34401828 0.12869997 -0.062425803
000090 11 47 50 be 74 62 b0 3e fe 58 ec bd 28 a5 7b 3e
       -0.2033961 0.34450114 -0.115404114 0.24574721
0000a0 7e 3a 06 3d a9 ac 2e 3e f0 90 c1 3e 7a c6 da 3d
       0.032770626 0.17058052 0.3780589 0.10682388
0000b0 1c b4 03 be bb 30 2f be 59 48 1a be 88 e4 97 3c
       -0.12861675 -0.17108433 -0.15066661 0.01854159
0000c0 49 1c ca 3e 3b 9c d1 be 6a ff 7b 3d 2c 42 05 be
       0.39474705 -0.40939507 0.06152288 -0.13013524
0000d0 fd 0a 11 3c d6 e1 19 be 58 3a dc 3c 67 6a 2c be
       0.0088527175 -0.15027556 0.02688329 -0.16837464
0000e0 bb bb 76 be 76 5f 39 3d d9 88 33 3e 3b e9 1a be
       -0.24095051 0.045257054 0.17532672 -0.15128033
0000f0 4d 93 3c 3e d4 44 44 3e 7f e3 21 bd 5b c3 b0 bd
       0.18415566 0.19166881 -0.039523598 -0.08631011
000100 6f 8c 03 3e e8 4c 3a 3c 1e df 60 3d 27 a8 e8 bd
       0.1284654 0.011370875 0.05490028 -0.113601975
000110 8a e8 cd 3d ac 05 8c bc 69 55 0a 3d 6a 71 a7 be
       0.10054119 -0.017092548 0.03377286 -0.32703716
000120 6f cd e8 3d e3 9f 20 bd 6e d4 de be 0f a1 ec bd
       0.11367308 -0.03921498 -0.43521446 -0.11554157
000130 4e 9f 39 3e 08 5e cd ba 1f e4 cc 3d 0c a9 27 bc
       0.18127176 -0.0015668282 0.10004448 -0.010233175
000140 1c b6 b0 3e 27 ef 95 be 62 d6 d1 be 2a fc e0 bc
       0.34513938 -0.2928402 -0.40983874 -0.027463991
000150 63 b5 85 bc eb 22 67 3e 66 d2 bf 3d 69 9b a9 bd
       -0.016321843 0.22571914 0.09366302 -0.08281595
000160 92 e4 15 3e 27 7d cf 3d 51 0c 9e 3d 05 b1 d1 3d
       0.14637974 0.10131293 0.07717193 0.10238842
000170 cb 67 88 3d 39 5d d3 bd c1 42 89 be 54 9e 94 3e
       0.06660422 -0.10320515 -0.26808742 0.29027045
000180 d9 ae d6 be 16 20 b0 3d f0 43 b2 3b 1c bd 08 3f
       -0.41930273 0.0859987 0.0054402277 0.5341356
000190 6e af 56 bd 18 68 3a 3e d9 e9 5a 3e d9 70 75 be
       -0.052413397 0.18203771 0.21378268 -0.23968829
0001a0 0f 69 80 be f5 6f 04 bf 07 43 a4 b9 9b 1a 84 be
       -0.25080153 -0.5173333 -0.00031330457 -0.25801548
0001b0 a6 cf 6f 3e 8f db 50 3e 8e c5 18 3e ff a5 04 3e
       0.23419055 0.20396255 0.14919111 0.12953947
0001c0 62 4b 12 3e ba 79 b5 3e d9 db 2c bd 10 6c 9e 3c
       0.14286569 0.35444432 -0.04220185 0.019338638
0001d0 e7 27 bb 3d f7 0c fc bd 20 04 23 3e 31 f1 c0 3e
       0.0913847 -0.1230716 0.15919542 0.37684014
0001e0 68 38 8b be ed 1c 1b 3e 00 9b f5 3e 47 c6 26 be
       -0.27191472 0.15147753 0.47969818 -0.16286574
0001f0 09 45 e5 3e f4 0e 5b be 12 ff de 3e 9a c8 c2 be
       0.44779232 -0.21392423 0.43553978 -0.38043672
000200 77 ff 42 3e fc 5e c2 be 40 53 82 be 58 12 39 be
       0.19042765 -0.37963092 -0.2545414 -0.18073404
000210 6e 88 57 3d c7 a5 a0 3e 40 15 b8 3d 22 a5 1c be
       0.052620344 0.31376478 0.08988428 -0.15297368
000220 1f ba ed 3d 90 9f 3a 3c 37 b1 0a 3e 51 c1 bf be
       0.116077654 0.011390582 0.13544165 -0.37452176
000230 ec 1f 6a be a8 a0 0f 3e 93 ea 90 3c 88 98 78 3d
       -0.2286374 0.14026129 0.017689979 0.06069234
000240 82 17 e9 bd ec a7 7d bd 69 33 17 be 71 5c 0f bc
       -0.11381437 -0.06192772 -0.14765705 -0.008750067
000250 34 65 01 3e 86 1f 86 bd 6a 96 e4 be 03 ad 93 3e
       0.12636262 -0.06548981 -0.44646007 0.28842935
000260 7f 1e 6d bb ea b6 fe 3d b6 74 7b bd 80 77 e1 be
       -0.0036181507 0.12437232 -0.0613906 -0.44036484
000270 d0 3c dc bc c1 8d 42 be e2 4c 22 be 0f b6 b6 be
       -0.026884466 -0.18999387 -0.15849641 -0.35685775
000280 0c 3d 60 3e 3b 8e 83 be ee 6e 95 be 92 4d 8b be
       0.21898288 -0.2569445 -0.29186195 -0.2720762
000290 85 53 44 3c 60 cd 53 be 1d cf d1 bd 4d 71 07 3e
       0.011982803 -0.20683813 -0.10244582 0.13226815
0002a0 5c 1e a1 bd 77 99 10 bd 1b 66 07 bf 39 69 da 3c
       -0.07867119 -0.035302605 -0.52890176 0.026661502
0002b0 00 2b 42 3e 31 f2 63 be 2d 11 16 3d c4 3f d9 3c
       0.18961716 -0.22260357 0.036637474 0.026519664
0002c0 ca 11 b4 be 4c a8 cf 3d 16 a4 e7 3c d4 c2 ee bd
       -0.35169822 0.10139522 0.028276484 -0.11658254
0002d0 02 b6 e1 bd 3a 15 b6 3e 8a 5e fc 3d 7c 41 e3 3e
       -0.11021043 0.3556307 0.123227194 0.44385898
0002e0 cb c5 12 3b 2f 68 ba 3d ca 3b db 3d 0c 8b cb 3c
       0.0022395726 0.09101903 0.10704763 0.024846576
0002f0 9d f6 0d 3d e3 f4 f0 bd 7f 79 ef bd e0 09 cb bd
       0.034659017 -0.117654584 -0.116930954 -0.09913993
000300 96 fc f9 3e 9c 5b 9f 3e 17 57 f7 3c 98 1d 24 3e
       0.4882552 0.3112458 0.030192895 0.16026914
000310 35 db 0e 3f cd 4b 02 be c2 79 e9 3d c5 19 88 bd
       0.55803233 -0.12724228 0.114001766 -0.0664554
000320 48 49 1a 3e 4b 81 1b 3e 4a 00 81 3e 32 1c 80 bd
       0.15067017 0.1518604 0.25195533 -0.06255378
000330 eb 34 91 3e 3a 2f 26 3e 23 d1 2b be ca 28 b7 3c
       0.28360686 0.16228953 -0.16778998 0.022358317
000340 a4 b4 03 be 9f eb e7 be d5 28 47 bd 94 ed b2 3e
       -0.12861878 -0.45296952 -0.048622925 0.34946883
000350 79 e8 99 be a4 72 0c be a2 fd 70 3d 0d 0a 06 bf
       -0.30060175 -0.13715607 0.058835633 -0.52359086
000360 c0 8b c2 3b 55 12 c2 bc d1 36 82 be 72 d4 b7 3d
       0.0059370697 -0.023690382 -0.25432447 0.089760676
000370 83 e0 96 3e 95 f6 33 bc 10 db 04 3e 87 99 e3 3e
       0.29468164 -0.010984083 0.1297419 0.4445307
000380 d3 c1 01 3f d4 f7 03 3e 85 8a 2e 3e 87 93 dc 3d
       0.5068638 0.12887508 0.17045029 0.10770326
000390 58 5b 6f bd 4e db f7 bd b6 23 10 3f 8c 1a 09 be
       -0.05843672 -0.12102376 0.5630449 -0.13389033
0003a0 a9 66 28 be 13 7f 0c 3c 4a d1 66 3e 7c 2b e5 3d
       -0.16445412 0.008575219 0.22540775 0.111899346
0003b0 8f 6e ab bd d1 f4 59 be 19 36 18 3e 5a 42 c9 3d
       -0.08370697 -0.21284796 0.14864387 0.09827109
0003c0 23 75 5b bd 54 da 84 be 1b 84 ef 3e 51 d5 b3 3e
       -0.053578507 -0.2594782 0.46780476 0.35123685
0003d0 c4 31 e3 3d 53 cb 31 3e 44 0e 0a 3e 57 ca aa bd
       0.110934764 0.17362718 0.13482004 -0.083393745
0003e0 45 f2 d8 be 80 b6 ac bc 57 85 53 3e c6 26 c0 3e
       -0.42372337 -0.021083117 0.20656334 0.37529582
0003f0 45 30 04 3e 94 42 5b 3e 1a 55 35 3e fb bc 27 3e
       0.12909038 0.21412116 0.17708245 0.16380684

layer1.attn_r f4 [1, 2, 256]
000000 b9 10 30 3f 50 73 60 3d eb cf c9 3e 80 ba cc 3d
       0.68775517 0.05479747 0.3941644 0.099965096
000010 2b 9e 04 3f 8d 17 31 be ed 1d 5a 3e 8a 40 01 be
       0.51803845 -0.1729414 0.21300478 -0.12622276
000020 a6 05 32 be f3 70 d7 3d 86 96 56 bd 52 59 03 bd
       -0.17384967 0.1051959 -0.052389644 -0.032067604
000030 b8 63 5d bd 88 1a e4 3d d4 91 1b bf 94 b8 8b 3d
       -0.054050177 0.11137873 -0.6076939 0.06822315
000040 aa 7d 0d 3f 57 10 4e bd 39 12 cf bc 8d 33 5d bc
       0.55269873 -0.05030855 -0.025277244 -0.01350106
000050 62 73 ed 3d 07 13 cc 3e ae 48 06 be d8 86 0d 3e
       0.11594273 0.39858267 -0.13113663 0.1382097
000060 b8 f7 1a 3d a4 90 d3 3e 34 15 7c be 64 02 f0 3d
       0.0378339 0.4132129 -0.24617463 0.11719206
000070 df 42 23 be fb 82 66 bc 3e 77 29 3e 31 1b 93 3c
       -0.15943478 -0.014069314 0.16549394 0.017957302
000080 4b ee 3e 3e e4 a5 b2 3e 1b f6 0a be 34 ae ce 3d
       0.18645589 0.3489219 -0.13570444 0.1009182
000090 85 ca 39 3e 09 86 53 bf 9b 5e f3 3d 02 64 92 be
       0.18143661 -0.82626396 0.11883279 -0.28591925
0000a0 fe 9b fe bc 0e 98 bb 3d 4c 6c bd be 48 4e b9 bd
       -0.031080242 0.091598615 -0.36996686 -0.09048134
0000b0 54 77 0a 3e 7a 16 32 3e c1 1e 16 3e 73 50 f1 3a
       0.13522083 0.17391387 0.14660169 0.0018410817
0000c0 58 ac 08 bf cf a0 b1 3e eb 43 75 bd 31 7f 0e 3e
       -0.53387976 0.34693 -0.059879225 0.13915707
0000d0 31 88 28 bc 8b 6d 22 3e c5 23 fb bc 10 20 ab 3d
       -0.010286377 0.158621 -0.030656705 0.08355725
0000e0 5b 2d 43 3e f1 88 56 bd 00 1e 33 be b9 83 bf bf
       0.1906027 -0.05237669 -0.17491913 -1.4962074
0000f0 f9 a0 1a be fa a5 2d be ab 92 87 3d 1d 4a 0f 3e
       -0.15100469 -0.16957846 0.066197716 0.13993116
000100 16 0b 1a be f6 63 10 c0 02 56 59 bf 4d 09 06 3e
       -0.15043291 -2.2561011 -0.8489686 0.13089485
000110 69 3f 8f bd fd cf ba 3d 85 66 58 bd 82 00 08 3f
       -0.069945164 0.09121702 -0.052832145 0.53125775
000120 c2 4c b2 bd e7 7b 8b 3d 0c 96 d3 3d 11 2b 5a 3c
       -0.08706047 0.06810742 0.103313535 0.013315932
000130 98 7c 17 be d9 5f 84 bd dc a1 eb bd aa b7 c2 3c
       -0.14793622 -0.06463594 -0.115054816 0.023769218
000140 93 95 09 bf 90 55 a6 3e 00 cb ce 3e 21 2b 2a 3d
       -0.5374386 0.32487154 0.40389252 0.041545037
000150 7f 34 7c bc 04 05 75 be 88 a1 87 bd 3f 65 9d 3d
       -0.015393375 -0.23927695 -0.066226065 0.07685327
000160 26 fc e6 bd db 9b 9e bd 74 91 c5 bd 02 5d 94 bd
       -0.11278562 -0.07744571 -0.096468836 -0.07244302
000170 ec af e0 bc 27 e4 0e 3e dc ec a5 3e e8 9f 8a be
       -0.027427636 0.1395422 0.32407272 -0.27075124
000180 60 8b 1e 3f 79 e9 80 bd 5a 7f 93 bc 66 91 d9 be
       0.6193142 -0.062945314 -0.018005062 -0.42493743
000190 89 70 92 3d 2a e8 29 be a2 60 55 be 8a 8e 43 3e
       0.07150371 -0.1659247 -0.20837644 0.19097343
0001a0 f5 4d c0 3e 42 51 87 3e e9 86 3a 3d f5 3f 9f 3e
       0.37559476 0.26429182 0.045538817 0.31103483
0001b0 07 cc a9 be ed ab 12 be 3f e0 00 be 8b fa 1a be
       -0.33163473 -0.14323397 -0.12585543 -0.15134637
0001c0 5c 79 c8 bd 1d cf e9 be 50 0f b8 3c 11 35 88 3b
       -0.097887725 -0.45665827 0.02246824 0.0041567166
0001d0 1f 27 84 bd 11 09 17 3e 0d f9 f8 3f 9b de 76 bd
       -0.06452774 0.14749552 1.9451004 -0.060270887
0001e0 d3 2e 8b 3e ed 27 11 be ff 2b 94 be 37 78 f7 3d
       0.27184162 -0.14175387 -0.28939816 0.12083476
0001f0 6b 0b 84 bd fa 4a 5c 3e 21 ed 2e bf e6 5c 39 3f
       -0.0644749 0.21512976 -0.6833058 0.72407377
000200 c7 a5 13 be c4 c8 97 3e b9 bf 74 3f 62 3c 8e 3e
       -0.14418708 0.2964536 0.95605046 0.27780443
000210 34 ce 1a 3b 69 8f 26 bf f9 99 90 3e 52 07 1b 3e
       0.0023621442 -0.65062577 0.28242472 0.15139511
000220 1a b0 8f bd c9 f5 98 bb 18 be a1 bd 63 c9 23 3f
       -0.070160106 -0.0046679717 -0.07897586 0.63979167
000230 eb 40 ae 3e 1b fe fc bd 43 46 3c 3d d3 91 06 bd
       0.34033903 -0.12353154 0.045965444 -0.032853913
000240 12 d3 b6 3d ee c2 98 3d c0 cb 1d 3e 66 21 71 3d
       0.08926977 0.07459055 0.15409756 0.05886974
000250 e1 ed 2d be 96 f9 c6 3d 4c 04 11 3f ca bc 6e be
       -0.16985275 0.097155735 0.5664718 -0.23314205
000260 64 4b bf bc 02 94 fc bd b9 2b 9a 3d e7 41 27 3f
       -0.023351379 -0.12332918 0.07527871 0.65334934
000270 c9 80 9b 3d 67 34 e4 bf 77 d7 2c 3e 36 8e f2 bc
       0.07592923 -1.7828492 0.16879068 -0.029608827
000280 27 93 4c be 64 32 be 3e f2 ea b6 3e b8 07 80 3e
       -0.19978009 0.3714782 0.35726124 0.2500589
000290 7d ab 4f bd 4d ee 98 3e 06 df f6 3d 27 b1 ea bd
       -0.050700653 0.2986931 0.12054257 -0.114595704
0002a0 5e 6c 19 3e dd b5 9e 3d 16 a8 9f 3e a4 c1 a6 3c
       0.14982745 0.077495314 0.31182927 0.020356007
0002b0 f2 d6 1e be 7c 4e 9f 3e cf 13 b6 bd 12 b7 61 bd
       -0.15511683 0.31114566 -0.08890497 -0.05510623
0002c0 c2 55 70 be 39 d7 a9 bd a6 a7 29 bc 48 e2 89 3d
       -0.23470214 -0.082930036 -0.010354912 0.06732613
0002d0 18 93 b6 3d 11 50 fe be d2 5c 26 be e9 81 71 be
       0.08914775 -0.4967046 -0.16246346 -0.23584713
0002e0 a0 31 45 3d db 08 14 be f8 b2 19 be 8d 70 d2 bb
       0.04814303 -0.14456503 -0.15009677 -0.0064221085
0002f0 02 e9 94 bd e0 a2 ee 3d aa ad 03 3e d5 b0 61 3d
       -0.07271005 0.1165216 0.12859216 0.05510028
000300 a3 e1 f1 be 37 88 6c be 56 32 48 3c fa 56 1e be
       -0.4724246 -0.23098837 0.012219032 -0.15462866
000310 53 5c d6 be 90 ce 26 3e 31 2c 1c be 8f 09 ca 3d
       -0.41867313 0.16289735 -0.15251233 0.098651044
000320 85 7e 05 be 25 1f 12 40 f9 27 85 be b3 80 c2 3d
       -0.13036545 2.283151 -0.2600706 0.09497204
000330 e9 f1 d2 bd ae 3e 0f be c1 bc bc 3d 0c de a2 bb
       -0.10300047 -0.13988754 0.092156895 -0.0049703177
000340 31 76 f9 3d f1 c2 1d 3f 29 66 9a 3d 51 93 a4 be
       0.12180746 0.6162558 0.07539017 -0.32143643
000350 da 24 a6 3e be 09 26 3e 1f 69 ca bd 77 2e 73 3e
       0.3244999 0.16214654 -0.098833315 0.23748194
000360 21 79 4a bd 63 07 c4 3b c8 5d 98 3e 96 f4 a5 bd
       -0.049431924 0.005982326 0.2975905 -0.08103292
000370 2f fa 6b be 53 a0 3d bd 05 15 29 be c4 e3 2d bf
       -0.23044656 -0.046295475 -0.16511925 -0.6792567
000380 62 fd 56 bf f4 fa 32 be c8 6f ce 3c 5a 96 19 be
       -0.8398038 -0.17478544 0.025199786 -0.14998761
000390 4a 35 fd 3c e6 0a 1d 3e 7f 9a c7 be 09 0a 5d 3e
       0.0309092 0.15336189 -0.3898506 0.2158586
0003a0 c9 93 0d 3e c6 6b 80 3d 37 25 3f be 2e d8 b1 bd
       0.13825907 0.06270556 -0.1866654 -0.08683811
0003b0 43 cb 19 3e 73 b9 5b 3e 84 51 60 be 87 f0 a1 bd
       0.15018944 0.21457462 -0.21906096 -0.07907205
0003c0 38 d1 ed 3d 2a 48 59 3e f2 64 01 bf cf 50 f9 be
       0.11612171 0.21218935 -0.50544655 -0.48694465
0003d0 7b 1f 0e be 19 29 3f be 49 b1 ec bd 37 8a 65 3d
       -0.13879196 -0.18668021 -0.11557252 0.056040015
0003e0 21 35 0b 3e e6 3d 78 3d 31 49 54 be 64 73 a1 be
       0.13594486 0.060605906 -0.20731045 -0.3153335
0003f0 c6 0e ea bd ae 22 4c be a1 09 3b be 9d ce 31 be
       -0.11428599 -0.19935104 -0.18265392 -0.17363973

layer1.bias f4 [512]
000000 a9 05 42 ba 47 55 a9 b9 b3 a1 0f bd ec 65 0a 3a
       -0.0007401356 -0.00032297728 -0.035066318 0.000527947
000010 d1 ba 9c ba 57 ff ea 39 a0 df fc 37 38 7a 54 39
       -0.0011957531 0.000448222 3.0144874e-05 0.00020263426
000020 de 7c 1e 39 08 88 29 39 8d 8c 38 39 ab 26 30 3b
       0.00015114571 0.00016167772 0.00017599967 0.0026878517
000030 93 85 13 39 90 43 ba b8 00 b9 43 3d 38 3d 93 b8
       0.00014068773 -8.881756e-05 0.04778385 -7.020909e-05
000040 0a 52 33 bd 72 22 1d 39 4a 68 24 b7 64 dd 96 b9
       -0.04377941 0.00014985519 -9.799443e-06 -0.00028775178
000050 b6 93 60 39 3f 47 ed ba b1 af a3 39 d0 1d 6e b8
       0.00021417331 -0.0018102898 0.00031220683 -5.6771387e-05
000060 c5 7f 02 b9 fc 21 b1 bd 90 f5 92 3a 53 2a 67 b9
       -0.00012445364 -0.0864906 0.0011212099 -0.00022045644
000070 f2 4a 67 39 dc fc 69 39 e8 f6 2f b9 a0 f2 d5 b8
       0.00022057796 0.00022314809 -0.0001678128 -0.00010201824
000080 21 57 62 b9 62 12 5a ba e9 56 1e 3a db eb d9 b9
       -0.00021585498 -0.00083187793 0.00060401723 -0.0004156519
000090 24 b5 92 b8 9e 64 65 3a de 6b 68 b9 ae 93 11 3a
       -6.9955626e-05 0.000875065 -0.00022165428 0.0005553317
0000a0 e6 95 38 38 79 15 c3 b9 26 81 ec 3a 8e b8 41 39
       4.4008622e-05 -0.00037209297 0.001804386 0.00018474666
0000b0 30 f9 20 b9 c3 72 96 b9 84 bb 25 3a 3d 59 02 ba
       -0.00015351619 -0.00028695734 0.00063221925 -0.0004972404
0000c0 a0 b2 a2 3a db 4a 80 bc 0e 0b f0 b9 f0 12 46 39
       0.0012412854 -0.015660694 -0.00045784604 0.00018889806
0000d0 f6 43 a3 39 0e c9 96 39 e0 5f a3 38 ad 04 47 ba
       0.00031140418 0.00028760027 7.790304e-05 -0.00075919443
0000e0 0f 17 87 ba e0 f9 79 3b da 26 b0 39 b5 ca 16 bc
       -0.0010306555 0.0038143322 0.00033598283 -0.009203603
0000f0 2c d9 ff 39 5f 25 62 39 e6 3e b6 b9 95 d8 9b b9
       0.00048799196 0.00021566961 -0.00034760608 -0.0002972527
000100 00 48 62 b6 61 29 f1 bb 46 0a eb ba 62 4b 8a 39
       -3.3718534e-06 -0.007359669 -0.0017932139 0.00026377576
000110 7f ee 39 39 f2 d7 2d b9 a4 f0 0e 39 4e 33 9b ba
       0.00017731822 -0.00016579012 0.00013631821 -0.0011840852
000120 70 ec 34 39 fb 52 b8 b9 ec ef da ba a8 ce 02 3a
       0.00017254218 -0.0003515704 -0.0016703582 0.00049899006
000130 32 ca 27 39 b7 78 15 3a 28 3b c6 b9 84 3c 3f b9
       0.00016001685 0.0005701887 -0.00037809578 -0.00018237723
000140 c4 be 96 3a 58 7b 35 ba 04 ad 2f bd 5f f7 73 ba
       0.0011500944 -0.00069229817 -0.04288961 -0.00093065755
000150 3c c9 80 39 12 c2 fe 39 c7 b5 12 39 0c f1 d0 39
       0.00024563994 0.0004859125 0.00013991362 0.00039852445
000160 d9 1e 1c 39 b0 73 23 39 f6 57 d8 b9 92 be 52 39
       0.00014888811 0.00015587988 -0.00041264266 0.00020098154
000170 c4 a7 fb 38 a0 2f e2 b7 2e aa 26 ba 96 c7 b8 3a
       0.000119998615 -2.6963477e-05 -0.0006357756 0.0014097567
000180 39 5a e4 bd 14 f8 00 39 f0 a9 82 38 c5 5f 7e 3c
       -0.11150021 0.00012299448 6.2305364e-05 0.015525763
000190 ea 91 3f b9 00 95 d4 39 58 f1 9d 38 84 c8 2d b9
       -0.00018269537 0.00040546805 7.531297e-05 -0.00016573264
0001a0 9b 09 4e ba a8 25 a1 bc b8 85 e8 b8 2e 9f 23 ba
       -0.00078597077 -0.019671276 -0.00011087529 -0.0006241676
0001b0 e0 70 48 3a 1f 2a 45 3a 08 9c 78 38 00 0e 46 b8
       0.0007646214 0.000752123 5.9273123e-05 -4.7219917e-05
0001c0 20 30 96 b6 6c e5 8b 3a bb 0e d8 b8 bc 0b d0 b9
       -4.475951e-06 0.0010673231 -0.000103024264 -0.00039681594
0001d0 bb 9c 0e 39 1e 80 8c b9 e8 6f 9e 3b f0 41 b0 3a
       0.00013600562 -0.00026798336 0.0048351176 0.0013447385
0001e0 3a 36 e9 b9 91 c9 e0 39 02 f7 10 bd 78 b5 37 3a
       -0.00044481625 0.00042874788 -0.035391815 0.0007007937
0001f0 77 8d ef 3b 30 60 5d b8 4b 68 3b 3c ba a6 40 bd
       0.007310565 -5.2780088e-05 0.01143844 -0.047034003
000200 f8 42 76 39 b0 3f 2a bc da fc 88 39 44 b5 22 ba
       0.00023485336 -0.010391161 0.0002612833 -0.000620682
000210 ff 19 84 b9 08 05 a1 3a 5e 1e e8 b9 54 cb 93 b8
       -0.0002519637 0.0012284825 -0.00044273114 -7.047379e-05
000220 e3 dc 1e 39 04 12 09 38 c6 8c 50 b9 68 b6 ba ba
       0.00015150341 3.2680124e-05 -0.00019888868 -0.0014245035
000230 4a 59 43 ba 7c f1 1a 39 28 82 36 b9 a2 78 16 b9
       -0.0007451965 0.00014776544 -0.0001740536 -0.00014350054
000240 a0 32 d2 b6 f0 f1 ac 39 4a 3a 9a 39 da d6 c2 b9
       -6.264381e-06 0.00032986654 0.00029416598 -0.0003716264
000250 2b 61 21 3a 22 00 5e b9 8e ef e7 bd 06 bb b5 39
       0.0006156142 -0.0002117162 -0.11324988 0.00034662354
000260 9a 14 26 38 20 f3 d6 b7 7f 70 1a 3a f2 83 b4 ba
       3.959667e-05 -2.5624002e-05 0.0005891397 -0.0013772233
000270 48 ff 4f b9 2f 95 52 bb 34 15 8d b9 49 2c 3c bb
       -0.00019836158 -0.0032132377 -0.00026909413 -0.002871292
000280 b5 c0 97 39 22 81 51 ba 3a 32 3e ba 90 a4 cf b9
       0.00028944542 -0.00079919596 -0.0007255409 -0.00039604725
000290 14 45 d6 39 bc 1a 10 ba 9c c3 d5 39 4a 48 cd 39
       0.00040868728 -0.0005497148 0.00040772266 0.00039154507
0002a0 51 bc 7d b9 d8 bd 1f 39 6e 3e 4f bb 92 ae 2e b9
       -0.00024198114 0.00015234144 -0.0031622904 -0.00016658966
0002b0 10 68 e2 b8 a8 ed 3e ba 80 96 91 b7 16 81 a0 b9
       -0.00010795903 -0.00072833383 -1.7355429e-05 -0.00030613755
0002c0 ba e3 f9 ba c1 df 3a 39 f3 2e ba 37 f2 57 9b b7
       -0.001906506 0.00017821697 2.219479e-05 -1.8518393e-05
0002d0 84 ae 15 b9 6d bd af 3a 8a d2 43 3a 07 a6 93 3d
       -0.0001427476 0.0013407894 0.00074700324 0.072094016
0002e0 77 98 ee b9 19 ad 14 3a 81 1b 35 3a 99 0d 8e b9
       -0.00045508493 0.00056715455 0.00069087005 -0.00027094482
0002f0 e9 cc 54 39 54 1f c9 b9 a0 f6 7f b7 3b 0c 0a 3a
       0.0002029423 -0.0003836105 -1.5256606e-05 0.00052661047
000300 72 f8 4a 3c d4 b2 ec 3a 52 a6 ec b7 63 ef 97 39
       0.012388336 0.0018058666 -2.8210841e-05 0.0002897932
000310 2d d8 1d 3d 02 5e 34 b9 b4 67 02 3a a0 6d 1a 39
       0.03853624 -0.00017201158 0.00049745594 0.00014727423
000320 c0 f6 e8 38 68 4c 02 3c 68 9d 01 3a 0a 4f 41 b9
       0.00011108583 0.007952787 0.0004944415 -0.00018435359
000330 90 1f 56 3a f0 46 5a b8 38 35 71 38 08 11 0d b9
       0.00081681553 -5.2041316e-05 5.750844e-05 -0.00013453152
000340 7e bd c7 39 f7 9f b7 ba 26 d6 a2 39 9e 6d 6e 3a
       0.0003809742 -0.0014009465 0.000310586 0.0009095314
000350 a4 db 20 ba ec 6e ce 39 e0 0d 0e b9 0b 4a 69 bd
       -0.00061362446 0.00039374025 -0.00013547344 -0.05695538
000360 ad 2b d1 37 6e 4f 66 ba 1e 8c 24 ba b8 97 b6 b9
       2.493508e-05 -0.00087856397 -0.00062769826 -0.00034826784
000370 76 a8 c3 3a b6 b6 75 39 87 31 75 39 a0 f4 78 3c
       0.0014927525 0.00023433086 0.00023383471 0.015195042
000380 e9 9f 70 bd d7 c2 26 3a 5f 15 be ba fc c5 5a 39
       -0.058746252 0.0006361431 -0.0014502219 0.00020863855
000390 47 d8 52 b9 b8 9c db 38 94 5f 3e 3c 62 17 eb b9
       -0.0002010773 0.00010471925 0.011619467 -0.00044840114
0003a0 9c 17 6b b9 8c 70 16 39 a0 33 0e b7 42 e0 0f 39
       -0.00022420142 0.00014347042 -8.475879e-06 0.00013721085
0003b0 c3 ab b5 b9 f8 a1 a6 b9 78 4a 19 3a e1 d0 2d 39
       -0.00034650983 -0.00031782663 0.00058475835 0.00016576379
0003c0 9e d9 64 b9 36 71 aa b9 45 3d 5c 3c 02 c9 8d 3a
       -0.00021824843 -0.00032509275 0.013442342 0.0010817351
0003d0 56 3c 6c 3a b2 be 67 39 13 ce 68 39 90 82 f0 b8
       0.00090116763 0.00022100916 0.00022202013 -0.00011468411
0003e0 5d cb 12 bc 2e b6 04 b9 4c 31 b5 38 f8 57 a9 3a
       -0.008959618 -0.00012656368 8.639935e-05 0.0012919893
0003f0 d6 cf 70 39 16 15 9d 39 36 06 05 3a ac 49 b4 39
       0.00022965609 0.00029961084 0.0005074473 0.00034387165

layer1.fc.weight f4 [512, 2]
000000 09 33 db 3b 8d 27 16 bc dc 23 3e 3b da 06 ef bb
       0.0066894335 -0.009164703 0.0029013073 -0.007294518
000010 69 25 91 bd 41 58 06 3d f1 15 3a 3b 9e b4 87 bb
       -0.070872135 0.03279901 0.0028394426 -0.0041414043
000020 b7 93 9e 3a 4c a7 1a bb 2b 9e e8 ba 15 ac 5d 3b
       0.0012098466 -0.0023598252 -0.0017747333 0.0033824493
000030 db 89 00 3b 90 e8 55 bb f3 ea 1c bb 13 e6 8c 3b
       0.0019613418 -0.0032639839 -0.0023943752 0.004299888
000040 fe b2 8c ba f7 f9 0c 3b a4 44 cb 3a 0e 27 fe ba
       -0.0010734496 0.0021511295 0.0015508127 -0.0019390301
000050 d0 36 59 b9 c6 26 12 3a 51 26 3c 3b 1d dd bf 3a
       -0.00020715152 0.00055752357 0.0028709362 0.001463804
000060 5d 93 5d b9 6a 2f 14 3a 88 ad 0b 3b 10 de 99 bb
       -0.000211311 0.0005652817 0.002131315 -0.0046956614
000070 9b 33 36 3d de 7f 8d 3d 0f b7 5a 3b 2f 33 d4 bb
       0.04448281 0.06909154 0.0033373272 -0.006475828
000080 b4 18 f9 bd 43 2f 39 bd e2 24 80 b9 b0 f5 1e 3a
       -0.12162915 -0.045211088 -0.00024441542 0.0006063832
000090 e7 52 a2 b9 ae b7 14 3a 0b 91 c5 ba 2c fe 2a 3b
       -0.00030960815 0.00056731224 -0.0015073133 0.002609144
0000a0 b8 30 1f 3b 07 a7 54 bb 5d 1f 18 ba ad 33 a1 ba
       0.0024290513 -0.003244819 -0.00058030133 -0.0012298726
0000b0 8a 77 17 bb 8f ac 89 3b b0 31 f5 3a 09 b7 6a bb
       -0.0023112022 0.004201479 0.0018706825 -0.0035814664
0000c0 55 3a 53 39 d4 e0 08 ba e5 ae 8c be 87 40 24 3d
       0.00020144258 -0.000522149 -0.27477184 0.0401006
0000d0 22 7d a3 39 cf 54 9c 3a 94 78 e9 39 22 92 4f ba
       0.00031183014 0.001192713 0.0004453106 -0.0007918199
0000e0 f6 05 b2 ba 25 c5 15 3b 38 89 21 bb 2c b1 f5 3b
       -0.0013582099 0.0022853103 -0.002464844 0.007497927
0000f0 72 d8 83 3a cf 62 bf ba 70 99 10 39 a6 bc 3c b9
       0.0010059013 -0.0014601591 0.0001379007 -0.00017999354
000100 dc 49 b4 3a 2c c0 26 bb 2d 8c 9f 3a 23 99 34 bb
       0.0013754922 -0.0025444133 0.0012172513 -0.0027557097
000110 7e 8b ec ba b9 b0 7c 3b d6 88 a0 3a 3b cd 48 bb
       -0.0018046943 0.0038557483 0.0012247812 -0.0030639905
000120 35 7d a4 3a 5a 12 10 bb f8 11 7a bb f0 96 b3 3b
       0.0012549522 -0.0021983595 -0.0038157683 0.0054806396
000130 48 ac ee 39 a5 2a 82 ba 77 15 59 ba 98 f5 d1 3a
       0.00045523257 -0.0009930922 -0.00082810916 0.0016018627
000140 79 25 4e 38 aa 6d 96 38 bf 9a fb ba a1 b2 31 3b
       4.9149126e-05 7.172984e-05 -0.0019195898 0.0027114528
000150 83 47 25 3b 33 91 2d ba 82 12 90 b9 a2 b8 30 3a
       0.0025219626 -0.00066210626 -0.0002747961 0.00067413796
000160 91 6a 9c 3a 4d 3b 0e bb 9c c2 89 3a 0f ac 0b bb
       0.0011933615 -0.0021702826 0.0010510269 -0.0021312272
000170 88 10 27 3b 46 3d 40 bb ae a4 2b 3b d1 62 0f bc
       0.002549203 -0.0029333397 0.0026190686 -0.008751587
000180 ec 37 b2 ba 37 23 28 3b 79 04 4b bd c6 0d 95 3c
       -0.0013596988 0.0025655755 -0.049564812 0.018195044
000190 0e 1e 40 bb d8 e9 ab 3b b1 3f 20 3b f0 65 91 bb
       -0.002931479 0.005246382 0.0024452026 -0.0044372007
0001a0 dc 1c a2 ba 3c ea 1e 3b ae 4b 33 3b a4 c6 97 bb
       -0.001236822 0.0024248501 0.002735834 -0.004631834
0001b0 66 6b 6c bb 96 67 24 3c c8 6b 05 ba b6 f7 27 ba
       -0.0036074757 0.010034462 -0.0005089608 -0.0006407456
0001c0 d4 c8 ba b9 4b 6f 7b ba 67 99 c6 3a 9c 78 42 3b
       -0.00035626313 -0.0009591474 0.0015151919 0.002967394
0001d0 70 9b 1f ba 0c 76 ac 3a d7 bb dc bd 48 b5 10 3e
       -0.00060885306 0.0013157739 -0.10778015 0.14131653
0001e0 8f ae af b9 04 a4 95 3a 8d 49 57 ba 74 cb e6 3a
       -0.00033508657 0.0011416678 -0.0008212559 0.0017608241
0001f0 4d 70 4f 3b c3 d7 0c bc 7a 47 ba 39 0b be 33 ba
       0.003165263 -0.0085963635 0.0003552994 -0.0006856627
000200 5e 9f 35 bb 57 30 a9 3b b8 0d df bd 54 7b 22 3e
       -0.0027713398 0.0051632333 -0.108912885 0.15867358
000210 8e fa b9 bc c6 a3 d7 3c 39 ad 34 3b 90 7d a6 bb
       -0.022702482 0.02632321 0.002756907 -0.005080886
000220 d4 46 82 b9 40 d1 24 3a b0 c8 66 39 72 39 83 b9
       -0.00024848303 0.0006287284 0.00022009271 -0.00025029067
000230 aa 64 49 b9 24 6f be 39 17 87 9c 3a 44 7d 11 bb
       -0.00019206354 0.0003632243 0.0011942115 -0.0022199908
000240 3e 87 9d b9 e3 de 43 3a fe 86 37 3b cc 87 d6 bb
       -0.00030046137 0.00074718724 0.0028004046 -0.00654695
000250 16 d7 c1 b7 01 66 a9 ba 9e 6c 65 3a f7 90 71 ba
       -2.310755e-05 -0.0012924076 0.0008751842 -0.0009215022
000260 75 50 3f ba 7d 01 ce 3a 69 64 82 38 fb f5 3d 3a
       -0.0007298061 0.0015716996 6.217586e-05 0.0007246432
000270 5a 79 4a bb a6 ec b9 3b 10 95 2f 39 e7 10 29 ba
       -0.0030895085 0.0056739626 0.0001674483 -0.0006449357
000280 41 99 a4 ba 29 e7 16 3b fc 51 88 3a 3c e8 0e bb
       -0.001255788 0.0023025966 0.001040041 -0.0021805903
000290 e4 8e 04 be 38 f9 5a 3c 1c b8 22 3b 1c 38 dc bb
       -0.12945133 0.013365082 0.0024828976 -0.006720556
0002a0 1c 38 2f ba 36 bd f0 3a e0 e4 43 ba 99 fe d2 3a
       -0.0006684081 0.0018366936 -0.00074727647 0.0016097605
0002b0 93 a6 86 b9 98 89 28 3a 88 46 29 3b 57 9e 8d bb
       -0.0002568258 0.00064291945 0.0025829393 -0.004321854
0002c0 c9 aa 51 ba d4 02 c4 3a dd cd 83 b9 7c fb 27 3a
       -0.0007998166 0.0014954456 -0.00025139647 0.00064080185
0002d0 6d 05 55 bb ac 35 d6 3b f0 4d 82 b9 39 9d 25 3a
       -0.0032504455 0.00653716 -0.000248536 0.00063176785
0002e0 d5 3a 39 b9 f6 ae f1 39 21 7f 4f 3b 84 5e ee bb
       -0.00017664891 0.00046097458 0.0031661468 -0.0072744507
0002f0 95 ac 71 3a db 3b e7 ba ef 75 84 3a 41 67 1f 3a
       0.0009219137 -0.001764174 0.0010105948 0.00060807547
000300 e9 ab 9e bd 44 c8 aa bd e0 96 5f b9 85 31 11 3a
       -0.07747633 -0.08338979 -0.00021323143 0.000553869
000310 97 42 21 b8 df 27 9c 38 ca 6a d7 3d 8e 47 31 bc
       -3.8447408e-05 7.446086e-05 0.10518415 -0.010820283
000320 5d a7 9f 39 38 2f 10 ba 0f 55 38 ba ff ef bd 3a
       0.0003045154 -0.00055002 -0.00070317177 0.001449108
000330 e5 26 15 bb f6 9d 83 3b d6 a9 58 3a ad ec eb ba
       -0.0022758779 0.004016633 0.00082650536 -0.0017999612
000340 7d 1e 91 3a 12 21 f3 ba 31 30 50 bd 64 cc 02 3d
       0.0011071708 -0.0018549284 -0.05082721 0.031933203
000350 1d be 4e 39 f7 36 37 b9 9b 2a 78 3a 47 89 ec ba
       0.00019716514 -0.00017472716 0.0009466798 -0.0018046283
000360 08 71 9c ba 95 1a 1b 3b 96 68 5d 39 6e dc 83 3a
       -0.0011935541 0.0023666967 0.00021115164 0.00100602
000370 0c ec c2 ba b8 06 35 3b f7 48 3b bb f0 59 b2 3b
       -0.0014871373 0.0027622413 -0.0028577426 0.0054428503
000380 08 69 88 ba ac 78 fc 3a c5 b3 8e ba fc 79 08 3b
       -0.0010407278 0.0019262037 -0.0010887316 0.0020824661
000390 9a 21 08 b9 35 f6 0b b8 d2 29 d9 3a e1 68 0e bb
       -0.00012982488 -3.336948e-05 0.001656825 -0.0021729993
0003a0 d8 f9 75 b9 63 dc 1c 3a bd 6a 02 3a 9e 35 60 ba
       -0.00023458095 0.0005983768 0.00049750117 -0.00085529115
0003b0 b6 c4 bb 3d ae 91 06 be 72 b0 af ba 5f 46 41 3b
       0.09168379 -0.1314151 -0.0013404025 0.0029491407
0003c0 4b a1 88 3a ed e6 14 bb 15 49 cd ba 54 50 46 3b
       0.0010424046 -0.002272065 -0.0015662039 0.0030260282
0003d0 b2 ad ea 3d fc d9 09 bd 52 bd 28 3b f5 14 4f bb
       0.11458911 -0.03365515 0.002574761 -0.0031598185
0003e0 19 cb 60 3d 73 3d 5a bd 1a 35 be 3a 1a 54 06 bb
       0.05488119 -0.05328126 0.0014511675 -0.0020496906
0003f0 95 d8 1d 3e 80 18 1e 3e 94 34 a7 bb a0 2d 78 bd
       0.1541465 0.15439034 -0.0051027033 -0.060590386

layer2.attn_l f4 [1, 1, 2]
000000 32 0c a7 bf c0 4c 94 bf
       -1.3050597 -1.1585922

layer2.attn_r f4 [1, 1, 2]
000000 14 52 2a 40 49 31 2b bf
       2.6612597 -0.6687208

layer2.bias f4 [2]
000000 da 91 ac bd 4a fc 43 bd
       -0.084262565 -0.047848023

layer2.fc.weight f4 [2, 512]
000000 96 02 cd ba a1 ad 81 bb 1e b6 6e b8 c4 82 27 bb
       -0.001564103 -0.0039574658 -5.691323e-05 -0.002556012
000010 4d bb dd ba c2 4f c5 3a 25 18 ee ba 01 8e 4a 3b
       -0.0016916782 0.0015053677 -0.0018165155 0.0030907395
000020 3b 71 9c 3a 10 70 97 ba f5 dd 3d 39 92 63 1c bb
       0.0011935601 -0.0011553783 0.0001810713 -0.002386306
000030 82 ee 3a 39 7f 2a 24 bb bf 7a 6d bc 6e 81 4b bb
       0.00017827193 -0.0025049744 -0.014494597 -0.0031052488
000040 f0 37 1e bd 50 24 40 39 b0 5b f3 38 78 b6 b4 3a
       -0.038627565 0.00018324074 0.00011604221 0.001378729
000050 81 18 24 bb 25 a2 a7 ba 1b 9e 33 3b 3c eb 08 bb
       -0.002503902 -0.0012789412 0.002740747 -0.0020892164
000060 81 7b 07 b9 ae 72 f7 bd fb 1b 4e 3a 91 24 f4 b9
       -0.00012920612 -0.1208242 0.0007862446 -0.0004656655
000070 39 62 ac 3a 23 e8 84 3b 44 59 90 ba 4a fc 4d b9
       0.0013151831 0.004055993 -0.0011012931 -0.00019644308
000080 7f a9 b5 ba 24 35 b0 ba 08 f0 b2 3a c6 0b c6 ba
       -0.0013859718 -0.0013443572 0.0013651857 -0.001510971
000090 33 81 b2 ba 62 41 ef 3a bd 2a 11 ba 02 aa 8c 3a
       -0.0013618827 0.0018253739 -0.00055376795 0.0010731819
0000a0 7c 7d 63 38 26 86 b4 b9 43 72 55 3a 9e 55 a4 39
       5.4237884e-05 -0.00034432224 0.00081423315 0.00031344307
0000b0 5e a1 a8 ba 20 ae 9e ba 52 cf 14 bb 02 df 68 bb
       -0.0012865474 -0.0012106337 -0.002270658 -0.0035533314
0000c0 7e 91 e1 3a 8a fd d8 bb 92 f8 35 3b 53 7c 27 bb
       0.0017209498 -0.006622021 0.0027766568 -0.002555628
0000d0 7f da f4 39 f1 00 3a bb 9e 94 8a 3b 3a e0 11 b9
       0.000467021 -0.0028381909 0.0042291423 -0.00013911808
0000e0 02 2f 2a ba 2d 51 03 bb 11 77 3b 3a 43 d5 8a 3c
       -0.000649199 -0.0020037398 0.0007151226 0.016947394
0000f0 50 0a 0e 3a da fd 7f 3a 53 2e 75 bb d7 d5 26 ba
       0.0005418407 0.0009765305 -0.0037411645 -0.0006364262
000100 1d 53 5f 3b 9c b4 a7 3c fa f4 2e 3b 5d 0c 44 bb
       0.003407664 0.020471863 0.002669631 -0.0029914596
000110 03 ef 78 39 e5 3f e5 b9 a5 af 8b 39 29 d3 f3 ba
       0.00023740162 -0.0004372589 0.0002664301 -0.0018602359
000120 f4 09 9d 39 79 68 35 bb 87 88 22 ba a8 28 bf b8
       0.0002995279 -0.0027680679 -0.0006200154 -9.1151625e-05
000130 d8 64 53 3a 32 a9 bd 39 2b b2 2d 3b 86 4c 72 b9
       0.0008064038 0.0003617495 0.0026503901 -0.00023107426
000140 fc 7e ec 3a 3e 12 a4 ba a1 49 70 bd ac fe 12 bb
       0.0018043215 -0.0012517644 -0.058663968 -0.0022429628
000150 58 ad 19 3a 2b 6d 74 3a 9d 6f 75 39 29 b4 1a bb
       0.0005862317 0.00093241286 0.000234066 -0.002360592
000160 b7 51 2b 3a e3 55 87 39 e6 11 66 3b b5 5d 83 39
       0.0006535309 0.00025813197 0.0035105883 0.00025056084
000170 b6 f7 d3 38 b3 11 84 bb fb 08 9c ba 16 ea 62 3a
       0.00010107404 -0.00403043 -0.0011904532 0.00086560973
000180 bf c6 58 3d ed b8 5c 39 31 b4 e5 38 8d 48 4f 3d
       0.052923914 0.00021049725 0.00010953134 0.0506063
000190 15 b4 d0 b9 e3 17 3b 3a fe 8e 20 3b 25 04 6c ba
       -0.00039807023 0.0007137043 0.0024499292 -0.0009003303
0001a0 33 7f b1 ba a5 0b 4e 3a b3 53 90 b9 ce 09 99 ba
       -0.0013541937 0.00078600115 -0.0002752818 -0.0011675896
0001b0 76 48 e6 3a 50 ac eb 39 af 33 c0 3a 7e 7a 64 3b
       0.0017569202 0.00044951076 0.001466384 0.003486305
0001c0 b8 f3 65 3a b4 11 c1 3a b4 7f 1f b8 bc 6a c4 ba
       0.00087719737 0.0014730007 -3.8027487e-05 -0.0014985423
0001d0 4b 5c 66 39 f0 04 11 ba c8 d0 7c bd b1 f6 f6 39
       0.00021968891 -0.0005532047 -0.061722547 0.00047104576
0001e0 94 51 b3 ba e9 a1 a5 3a b4 c7 dc bb 85 0a ff ba
       -0.0013680928 0.0012636754 -0.0067376737 -0.0019458091
0001f0 80 1f c6 bb 4c db be ba c8 33 83 3d fc d2 ab 3a
       -0.0060462356 -0.0014561205 0.06406361 0.0013109143
000200 de 6b 17 3a 5b 5b ee 39 b1 46 22 bb fa 50 9b ba
       0.00057762663 0.00045462963 -0.0024761374 -0.0011849694
000210 24 e9 02 38 b4 fe ea 3a 7b d3 7e ba 5b d7 d3 ba
       3.1211544e-05 0.0017928691 -0.0009720844 -0.0016162203
000220 02 97 90 39 a7 be 2c 38 b3 cd bf 3a 20 a4 ec ba
       0.0002757833 4.1185554e-05 0.0014633447 -0.0018054284
000230 be ec ad ba 81 6f 5c 3a d2 66 56 bb cc 0f 8d 3a
       -0.0013269407 0.00084089494 -0.0032715094 0.0010762154
000240 86 3b ec b9 98 48 18 bb 9a 70 37 bb 8a 56 0a ba
       -0.00045057776 -0.0023236629 -0.00279907 -0.00052771776
000250 57 5d 00 3b 78 62 f2 b9 1f 5d 89 3b 2f fa 92 3a
       0.0019586885 -0.00046231202 0.004192009 0.0011213477
000260 d3 9b 2f 39 56 ed 59 3b fc 35 4c bb a4 96 03 bb
       0.0001674735 0.0033253036 -0.0031160107 -0.0020078802
000270 65 c3 e2 b9 c0 8a d7 3b 82 f8 82 ba 3c 9b ac 38
       -0.0004325166 0.0065778196 -0.0009992274 8.230514e-05
000280 3f d1 8c 3a 94 d3 b3 ba fc 52 a0 ba 7b 77 8e ba
       0.0010743513 -0.0013719671 -0.0012231763 -0.0010869348
000290 28 9f 8f 3a b6 09 8a ba 25 73 50 bb 5c ed fe 3a
       0.0010957466 -0.0010531459 -0.0031806913 0.0019449401
0002a0 27 15 9f ba 00 f0 47 bb 03 a5 fc b9 57 91 6e b9
       -0.0012137041 -0.0030508041 -0.0004818813 -0.00022751592
0002b0 08 8f 2a 3b a4 67 9b ba 34 33 51 3b a6 b3 44 3b
       0.0026025195 -0.0011856449 0.0031921389 0.0030014305
0002c0 52 a8 81 b7 3a 4b 95 39 fd 82 57 b7 82 3a ad b9
       -1.5456379e-05 0.00028475543 -1.2845497e-05 -0.00033040723
0002d0 b0 6b ad b9 eb 22 f8 3a f2 91 0d 3b 5f 7a 4c 3e
       -0.00033077365 0.0018931305 0.0021601883 0.19968556
0002e0 a3 1b 1c ba eb 78 67 3b de c4 53 3b 97 81 83 ba
       -0.0005955046 0.0035319875 0.0032313387 -0.0010033128
0002f0 87 30 cd 39 5d ac 91 ba 6d 07 ea ba f7 2b 92 3b
       0.00039136803 -0.001111399 -0.0017854996 0.0044608074
000300 41 da 4b 3d 1c ab fe 39 93 ec 0d b9 76 20 20 3a
       0.04976869 0.00048574142 -0.00013534939 0.00061083527
000310 ed ec 24 3e d2 dd 92 ba 43 b1 56 3b ba fc 4c bb
       0.16106005 -0.0011205024 0.0032759465 -0.0031278566
000320 6d 3b 8f 3a e2 33 a0 bd fc 5a 96 3a cb 42 aa b9
       0.0010927744 -0.07822396 0.0011471207 -0.0003247469
000330 8c 0c e4 39 d1 6a fc 3a fc 58 5e ba d9 5e 90 ba
       0.00043496897 0.0019257908 -0.00084818876 -0.0011014595
000340 92 63 e1 ba 24 c4 00 bb c0 44 4c bb a6 af a3 3a
       -0.0017195812 -0.001964816 -0.0031168908 0.001248826
000350 0f 46 a6 ba 96 52 3d bb 88 4a 83 3b d8 e2 1f bd
       -0.0012685674 -0.0028888336 0.0040066876 -0.039034694
000360 13 96 0d 39 90 eb c6 3a ad e7 8d ba 75 33 26 3b
       0.00013502715 0.0015176404 -0.0010826491 0.002536026
000370 e0 ae 53 3a 09 b5 9b 39 62 3d 84 3a ff c0 09 3c
       0.00080750696 0.00029698786 0.0010089094 0.00840783
000380 83 ce 60 3d 3d a2 49 3b e0 f2 43 ba 1e 5b 9b 3a
       0.054884445 0.0030766868 -0.0007474851 0.0011852717
000390 d9 5c f9 38 9e ee 20 bb e2 e2 d3 3d c7 1d 4b ba
       0.000118905395 -0.002455629 0.10346009 -0.00077482726
0003a0 08 5b 07 ba b9 10 7b b9 9a b4 25 3b a8 50 b7 39
       -0.0005163406 -0.00023943455 0.002528465 0.00034964574
0003b0 fd 0a 41 ba bd 65 9d ba f2 63 b2 3a 24 c2 8a 39
       -0.0007364003 -0.001200847 0.0013610108 0.00026466057
0003c0 6f bd 0b ba d3 8c 69 ba 14 c1 d8 3c 6e 06 d3 3a
       -0.0005330657 -0.0008909229 0.026459254 0.0016099939
0003d0 85 68 bb 3a 4e ba 90 3a e1 29 06 3a 5f 82 47 b9
       0.0014298117 0.0011041851 0.0005117935 -0.00019026686
0003e0 26 1f ab 3c 95 82 6a b9 ce be 35 3b 41 22 91 3a
       0.020888876 -0.00022364625 0.0027732137 0.001107283
0003f0 8d f7 d5 39 4d 4f 8c 3a a1 70 eb 3a 39 99 2f 3a
       0.00040810966 0.0010704786 0.0017962643 0.0006698552
